{
  "nodes": [
    {
      "op": "null", 
      "name": "data", 
      "inputs": []
    }, 
    {
      "op": "null", 
      "name": "ssd0_vggatrousextractor0_init_scale", 
      "attrs": {
        "__dtype__": "0", 
        "__init__": "Constant_ssd0_vggatrousextractor0_init_scale_139826144268184", 
        "__lr_mult__": "1.0", 
        "__shape__": "(1, 3, 1, 1)", 
        "__storage_type__": "0", 
        "__wd_mult__": "1.0"
      }, 
      "inputs": []
    }, 
    {
      "op": "broadcast_mul", 
      "name": "ssd0_vggatrousextractor0_broadcast_mul0", 
      "inputs": [[0, 0, 0], [1, 0, 0]]
    }, 
    {
      "op": "null", 
      "name": "ssd0_vggatrousextractor0_conv0_weight", 
      "attrs": {
        "__dtype__": "0", 
        "__init__": "[\"xavier\", {\"rnd_type\": \"gaussian\", \"factor_type\": \"out\", \"magnitude\": 2}]", 
        "__lr_mult__": "1.0", 
        "__shape__": "(64, 3, 3, 3)", 
        "__storage_type__": "0", 
        "__wd_mult__": "1.0"
      }, 
      "inputs": []
    }, 
    {
      "op": "null", 
      "name": "ssd0_vggatrousextractor0_conv0_bias", 
      "attrs": {
        "__dtype__": "0", 
        "__init__": "zeros", 
        "__lr_mult__": "1.0", 
        "__shape__": "(64,)", 
        "__storage_type__": "0", 
        "__wd_mult__": "1.0"
      }, 
      "inputs": []
    }, 
    {
      "op": "Convolution", 
      "name": "ssd0_vggatrousextractor0_conv0_fwd", 
      "attrs": {
        "dilate": "(1, 1)", 
        "kernel": "(3, 3)", 
        "layout": "NCHW", 
        "no_bias": "False", 
        "num_filter": "64", 
        "num_group": "1", 
        "pad": "(1, 1)", 
        "stride": "(1, 1)"
      }, 
      "inputs": [[2, 0, 0], [3, 0, 0], [4, 0, 0]]
    }, 
    {
      "op": "Activation", 
      "name": "ssd0_vggatrousextractor0_relu0_fwd", 
      "attrs": {"act_type": "relu"}, 
      "inputs": [[5, 0, 0]]
    }, 
    {
      "op": "null", 
      "name": "ssd0_vggatrousextractor0_conv1_weight", 
      "attrs": {
        "__dtype__": "0", 
        "__init__": "[\"xavier\", {\"rnd_type\": \"gaussian\", \"factor_type\": \"out\", \"magnitude\": 2}]", 
        "__lr_mult__": "1.0", 
        "__shape__": "(64, 64, 3, 3)", 
        "__storage_type__": "0", 
        "__wd_mult__": "1.0"
      }, 
      "inputs": []
    }, 
    {
      "op": "null", 
      "name": "ssd0_vggatrousextractor0_conv1_bias", 
      "attrs": {
        "__dtype__": "0", 
        "__init__": "zeros", 
        "__lr_mult__": "1.0", 
        "__shape__": "(64,)", 
        "__storage_type__": "0", 
        "__wd_mult__": "1.0"
      }, 
      "inputs": []
    }, 
    {
      "op": "Convolution", 
      "name": "ssd0_vggatrousextractor0_conv1_fwd", 
      "attrs": {
        "dilate": "(1, 1)", 
        "kernel": "(3, 3)", 
        "layout": "NCHW", 
        "no_bias": "False", 
        "num_filter": "64", 
        "num_group": "1", 
        "pad": "(1, 1)", 
        "stride": "(1, 1)"
      }, 
      "inputs": [[6, 0, 0], [7, 0, 0], [8, 0, 0]]
    }, 
    {
      "op": "Activation", 
      "name": "ssd0_vggatrousextractor0_relu1_fwd", 
      "attrs": {"act_type": "relu"}, 
      "inputs": [[9, 0, 0]]
    }, 
    {
      "op": "Pooling", 
      "name": "ssd0_vggatrousextractor0_pooling0", 
      "attrs": {
        "kernel": "(2, 2)", 
        "pool_type": "max", 
        "pooling_convention": "full", 
        "stride": "(2, 2)"
      }, 
      "inputs": [[10, 0, 0]]
    }, 
    {
      "op": "null", 
      "name": "ssd0_vggatrousextractor0_conv2_weight", 
      "attrs": {
        "__dtype__": "0", 
        "__init__": "[\"xavier\", {\"rnd_type\": \"gaussian\", \"factor_type\": \"out\", \"magnitude\": 2}]", 
        "__lr_mult__": "1.0", 
        "__shape__": "(128, 64, 3, 3)", 
        "__storage_type__": "0", 
        "__wd_mult__": "1.0"
      }, 
      "inputs": []
    }, 
    {
      "op": "null", 
      "name": "ssd0_vggatrousextractor0_conv2_bias", 
      "attrs": {
        "__dtype__": "0", 
        "__init__": "zeros", 
        "__lr_mult__": "1.0", 
        "__shape__": "(128,)", 
        "__storage_type__": "0", 
        "__wd_mult__": "1.0"
      }, 
      "inputs": []
    }, 
    {
      "op": "Convolution", 
      "name": "ssd0_vggatrousextractor0_conv2_fwd", 
      "attrs": {
        "dilate": "(1, 1)", 
        "kernel": "(3, 3)", 
        "layout": "NCHW", 
        "no_bias": "False", 
        "num_filter": "128", 
        "num_group": "1", 
        "pad": "(1, 1)", 
        "stride": "(1, 1)"
      }, 
      "inputs": [[11, 0, 0], [12, 0, 0], [13, 0, 0]]
    }, 
    {
      "op": "Activation", 
      "name": "ssd0_vggatrousextractor0_relu2_fwd", 
      "attrs": {"act_type": "relu"}, 
      "inputs": [[14, 0, 0]]
    }, 
    {
      "op": "null", 
      "name": "ssd0_vggatrousextractor0_conv3_weight", 
      "attrs": {
        "__dtype__": "0", 
        "__init__": "[\"xavier\", {\"rnd_type\": \"gaussian\", \"factor_type\": \"out\", \"magnitude\": 2}]", 
        "__lr_mult__": "1.0", 
        "__shape__": "(128, 128, 3, 3)", 
        "__storage_type__": "0", 
        "__wd_mult__": "1.0"
      }, 
      "inputs": []
    }, 
    {
      "op": "null", 
      "name": "ssd0_vggatrousextractor0_conv3_bias", 
      "attrs": {
        "__dtype__": "0", 
        "__init__": "zeros", 
        "__lr_mult__": "1.0", 
        "__shape__": "(128,)", 
        "__storage_type__": "0", 
        "__wd_mult__": "1.0"
      }, 
      "inputs": []
    }, 
    {
      "op": "Convolution", 
      "name": "ssd0_vggatrousextractor0_conv3_fwd", 
      "attrs": {
        "dilate": "(1, 1)", 
        "kernel": "(3, 3)", 
        "layout": "NCHW", 
        "no_bias": "False", 
        "num_filter": "128", 
        "num_group": "1", 
        "pad": "(1, 1)", 
        "stride": "(1, 1)"
      }, 
      "inputs": [[15, 0, 0], [16, 0, 0], [17, 0, 0]]
    }, 
    {
      "op": "Activation", 
      "name": "ssd0_vggatrousextractor0_relu3_fwd", 
      "attrs": {"act_type": "relu"}, 
      "inputs": [[18, 0, 0]]
    }, 
    {
      "op": "Pooling", 
      "name": "ssd0_vggatrousextractor0_pooling1", 
      "attrs": {
        "kernel": "(2, 2)", 
        "pool_type": "max", 
        "pooling_convention": "full", 
        "stride": "(2, 2)"
      }, 
      "inputs": [[19, 0, 0]]
    }, 
    {
      "op": "null", 
      "name": "ssd0_vggatrousextractor0_conv4_weight", 
      "attrs": {
        "__dtype__": "0", 
        "__init__": "[\"xavier\", {\"rnd_type\": \"gaussian\", \"factor_type\": \"out\", \"magnitude\": 2}]", 
        "__lr_mult__": "1.0", 
        "__shape__": "(256, 128, 3, 3)", 
        "__storage_type__": "0", 
        "__wd_mult__": "1.0"
      }, 
      "inputs": []
    }, 
    {
      "op": "null", 
      "name": "ssd0_vggatrousextractor0_conv4_bias", 
      "attrs": {
        "__dtype__": "0", 
        "__init__": "zeros", 
        "__lr_mult__": "1.0", 
        "__shape__": "(256,)", 
        "__storage_type__": "0", 
        "__wd_mult__": "1.0"
      }, 
      "inputs": []
    }, 
    {
      "op": "Convolution", 
      "name": "ssd0_vggatrousextractor0_conv4_fwd", 
      "attrs": {
        "dilate": "(1, 1)", 
        "kernel": "(3, 3)", 
        "layout": "NCHW", 
        "no_bias": "False", 
        "num_filter": "256", 
        "num_group": "1", 
        "pad": "(1, 1)", 
        "stride": "(1, 1)"
      }, 
      "inputs": [[20, 0, 0], [21, 0, 0], [22, 0, 0]]
    }, 
    {
      "op": "Activation", 
      "name": "ssd0_vggatrousextractor0_relu4_fwd", 
      "attrs": {"act_type": "relu"}, 
      "inputs": [[23, 0, 0]]
    }, 
    {
      "op": "null", 
      "name": "ssd0_vggatrousextractor0_conv5_weight", 
      "attrs": {
        "__dtype__": "0", 
        "__init__": "[\"xavier\", {\"rnd_type\": \"gaussian\", \"factor_type\": \"out\", \"magnitude\": 2}]", 
        "__lr_mult__": "1.0", 
        "__shape__": "(256, 256, 3, 3)", 
        "__storage_type__": "0", 
        "__wd_mult__": "1.0"
      }, 
      "inputs": []
    }, 
    {
      "op": "null", 
      "name": "ssd0_vggatrousextractor0_conv5_bias", 
      "attrs": {
        "__dtype__": "0", 
        "__init__": "zeros", 
        "__lr_mult__": "1.0", 
        "__shape__": "(256,)", 
        "__storage_type__": "0", 
        "__wd_mult__": "1.0"
      }, 
      "inputs": []
    }, 
    {
      "op": "Convolution", 
      "name": "ssd0_vggatrousextractor0_conv5_fwd", 
      "attrs": {
        "dilate": "(1, 1)", 
        "kernel": "(3, 3)", 
        "layout": "NCHW", 
        "no_bias": "False", 
        "num_filter": "256", 
        "num_group": "1", 
        "pad": "(1, 1)", 
        "stride": "(1, 1)"
      }, 
      "inputs": [[24, 0, 0], [25, 0, 0], [26, 0, 0]]
    }, 
    {
      "op": "Activation", 
      "name": "ssd0_vggatrousextractor0_relu5_fwd", 
      "attrs": {"act_type": "relu"}, 
      "inputs": [[27, 0, 0]]
    }, 
    {
      "op": "null", 
      "name": "ssd0_vggatrousextractor0_conv6_weight", 
      "attrs": {
        "__dtype__": "0", 
        "__init__": "[\"xavier\", {\"rnd_type\": \"gaussian\", \"factor_type\": \"out\", \"magnitude\": 2}]", 
        "__lr_mult__": "1.0", 
        "__shape__": "(256, 256, 3, 3)", 
        "__storage_type__": "0", 
        "__wd_mult__": "1.0"
      }, 
      "inputs": []
    }, 
    {
      "op": "null", 
      "name": "ssd0_vggatrousextractor0_conv6_bias", 
      "attrs": {
        "__dtype__": "0", 
        "__init__": "zeros", 
        "__lr_mult__": "1.0", 
        "__shape__": "(256,)", 
        "__storage_type__": "0", 
        "__wd_mult__": "1.0"
      }, 
      "inputs": []
    }, 
    {
      "op": "Convolution", 
      "name": "ssd0_vggatrousextractor0_conv6_fwd", 
      "attrs": {
        "dilate": "(1, 1)", 
        "kernel": "(3, 3)", 
        "layout": "NCHW", 
        "no_bias": "False", 
        "num_filter": "256", 
        "num_group": "1", 
        "pad": "(1, 1)", 
        "stride": "(1, 1)"
      }, 
      "inputs": [[28, 0, 0], [29, 0, 0], [30, 0, 0]]
    }, 
    {
      "op": "Activation", 
      "name": "ssd0_vggatrousextractor0_relu6_fwd", 
      "attrs": {"act_type": "relu"}, 
      "inputs": [[31, 0, 0]]
    }, 
    {
      "op": "Pooling", 
      "name": "ssd0_vggatrousextractor0_pooling2", 
      "attrs": {
        "kernel": "(2, 2)", 
        "pool_type": "max", 
        "pooling_convention": "full", 
        "stride": "(2, 2)"
      }, 
      "inputs": [[32, 0, 0]]
    }, 
    {
      "op": "null", 
      "name": "ssd0_vggatrousextractor0_conv7_weight", 
      "attrs": {
        "__dtype__": "0", 
        "__init__": "[\"xavier\", {\"rnd_type\": \"gaussian\", \"factor_type\": \"out\", \"magnitude\": 2}]", 
        "__lr_mult__": "1.0", 
        "__shape__": "(512, 256, 3, 3)", 
        "__storage_type__": "0", 
        "__wd_mult__": "1.0"
      }, 
      "inputs": []
    }, 
    {
      "op": "null", 
      "name": "ssd0_vggatrousextractor0_conv7_bias", 
      "attrs": {
        "__dtype__": "0", 
        "__init__": "zeros", 
        "__lr_mult__": "1.0", 
        "__shape__": "(512,)", 
        "__storage_type__": "0", 
        "__wd_mult__": "1.0"
      }, 
      "inputs": []
    }, 
    {
      "op": "Convolution", 
      "name": "ssd0_vggatrousextractor0_conv7_fwd", 
      "attrs": {
        "dilate": "(1, 1)", 
        "kernel": "(3, 3)", 
        "layout": "NCHW", 
        "no_bias": "False", 
        "num_filter": "512", 
        "num_group": "1", 
        "pad": "(1, 1)", 
        "stride": "(1, 1)"
      }, 
      "inputs": [[33, 0, 0], [34, 0, 0], [35, 0, 0]]
    }, 
    {
      "op": "Activation", 
      "name": "ssd0_vggatrousextractor0_relu7_fwd", 
      "attrs": {"act_type": "relu"}, 
      "inputs": [[36, 0, 0]]
    }, 
    {
      "op": "null", 
      "name": "ssd0_vggatrousextractor0_conv8_weight", 
      "attrs": {
        "__dtype__": "0", 
        "__init__": "[\"xavier\", {\"rnd_type\": \"gaussian\", \"factor_type\": \"out\", \"magnitude\": 2}]", 
        "__lr_mult__": "1.0", 
        "__shape__": "(512, 512, 3, 3)", 
        "__storage_type__": "0", 
        "__wd_mult__": "1.0"
      }, 
      "inputs": []
    }, 
    {
      "op": "null", 
      "name": "ssd0_vggatrousextractor0_conv8_bias", 
      "attrs": {
        "__dtype__": "0", 
        "__init__": "zeros", 
        "__lr_mult__": "1.0", 
        "__shape__": "(512,)", 
        "__storage_type__": "0", 
        "__wd_mult__": "1.0"
      }, 
      "inputs": []
    }, 
    {
      "op": "Convolution", 
      "name": "ssd0_vggatrousextractor0_conv8_fwd", 
      "attrs": {
        "dilate": "(1, 1)", 
        "kernel": "(3, 3)", 
        "layout": "NCHW", 
        "no_bias": "False", 
        "num_filter": "512", 
        "num_group": "1", 
        "pad": "(1, 1)", 
        "stride": "(1, 1)"
      }, 
      "inputs": [[37, 0, 0], [38, 0, 0], [39, 0, 0]]
    }, 
    {
      "op": "Activation", 
      "name": "ssd0_vggatrousextractor0_relu8_fwd", 
      "attrs": {"act_type": "relu"}, 
      "inputs": [[40, 0, 0]]
    }, 
    {
      "op": "null", 
      "name": "ssd0_vggatrousextractor0_conv9_weight", 
      "attrs": {
        "__dtype__": "0", 
        "__init__": "[\"xavier\", {\"rnd_type\": \"gaussian\", \"factor_type\": \"out\", \"magnitude\": 2}]", 
        "__lr_mult__": "1.0", 
        "__shape__": "(512, 512, 3, 3)", 
        "__storage_type__": "0", 
        "__wd_mult__": "1.0"
      }, 
      "inputs": []
    }, 
    {
      "op": "null", 
      "name": "ssd0_vggatrousextractor0_conv9_bias", 
      "attrs": {
        "__dtype__": "0", 
        "__init__": "zeros", 
        "__lr_mult__": "1.0", 
        "__shape__": "(512,)", 
        "__storage_type__": "0", 
        "__wd_mult__": "1.0"
      }, 
      "inputs": []
    }, 
    {
      "op": "Convolution", 
      "name": "ssd0_vggatrousextractor0_conv9_fwd", 
      "attrs": {
        "dilate": "(1, 1)", 
        "kernel": "(3, 3)", 
        "layout": "NCHW", 
        "no_bias": "False", 
        "num_filter": "512", 
        "num_group": "1", 
        "pad": "(1, 1)", 
        "stride": "(1, 1)"
      }, 
      "inputs": [[41, 0, 0], [42, 0, 0], [43, 0, 0]]
    }, 
    {
      "op": "Activation", 
      "name": "ssd0_vggatrousextractor0_relu9_fwd", 
      "attrs": {"act_type": "relu"}, 
      "inputs": [[44, 0, 0]]
    }, 
    {
      "op": "L2Normalization", 
      "name": "ssd0_vggatrousextractor0_normalize0_l2normalization0", 
      "attrs": {
        "eps": "1e-05", 
        "mode": "channel"
      }, 
      "inputs": [[45, 0, 0]]
    }, 
    {
      "op": "null", 
      "name": "ssd0_vggatrousextractor0_normalize0_normalize_scale", 
      "attrs": {
        "__dtype__": "0", 
        "__init__": "[\"constant\", {\"value\": 20}]", 
        "__lr_mult__": "1.0", 
        "__shape__": "(1, 512, 1, 1)", 
        "__storage_type__": "0", 
        "__wd_mult__": "1.0"
      }, 
      "inputs": []
    }, 
    {
      "op": "broadcast_mul", 
      "name": "ssd0_vggatrousextractor0_normalize0_broadcast_mul0", 
      "inputs": [[46, 0, 0], [47, 0, 0]]
    }, 
    {
      "op": "null", 
      "name": "ssd0_convpredictor0_conv0_weight", 
      "attrs": {
        "__dtype__": "0", 
        "__init__": "[\"xavier\", {\"rnd_type\": \"uniform\", \"factor_type\": \"avg\", \"magnitude\": 2}]", 
        "__lr_mult__": "1.0", 
        "__shape__": "(84, 512, 3, 3)", 
        "__storage_type__": "0", 
        "__wd_mult__": "1.0"
      }, 
      "inputs": []
    }, 
    {
      "op": "null", 
      "name": "ssd0_convpredictor0_conv0_bias", 
      "attrs": {
        "__dtype__": "0", 
        "__init__": "zeros", 
        "__lr_mult__": "1.0", 
        "__shape__": "(84,)", 
        "__storage_type__": "0", 
        "__wd_mult__": "1.0"
      }, 
      "inputs": []
    }, 
    {
      "op": "Convolution", 
      "name": "ssd0_convpredictor0_conv0_fwd", 
      "attrs": {
        "dilate": "(1, 1)", 
        "kernel": "(3, 3)", 
        "layout": "NCHW", 
        "no_bias": "False", 
        "num_filter": "84", 
        "num_group": "1", 
        "pad": "(1, 1)", 
        "stride": "(1, 1)"
      }, 
      "inputs": [[48, 0, 0], [49, 0, 0], [50, 0, 0]]
    }, 
    {
      "op": "transpose", 
      "name": "ssd0_transpose0", 
      "attrs": {"axes": "(0, 2, 3, 1)"}, 
      "inputs": [[51, 0, 0]]
    }, 
    {
      "op": "Flatten", 
      "name": "ssd0_flatten0", 
      "inputs": [[52, 0, 0]]
    }, 
    {
      "op": "Pooling", 
      "name": "ssd0_vggatrousextractor0_pooling3", 
      "attrs": {
        "kernel": "(2, 2)", 
        "pool_type": "max", 
        "pooling_convention": "full", 
        "stride": "(2, 2)"
      }, 
      "inputs": [[45, 0, 0]]
    }, 
    {
      "op": "null", 
      "name": "ssd0_vggatrousextractor0_conv10_weight", 
      "attrs": {
        "__dtype__": "0", 
        "__init__": "[\"xavier\", {\"rnd_type\": \"gaussian\", \"factor_type\": \"out\", \"magnitude\": 2}]", 
        "__lr_mult__": "1.0", 
        "__shape__": "(512, 512, 3, 3)", 
        "__storage_type__": "0", 
        "__wd_mult__": "1.0"
      }, 
      "inputs": []
    }, 
    {
      "op": "null", 
      "name": "ssd0_vggatrousextractor0_conv10_bias", 
      "attrs": {
        "__dtype__": "0", 
        "__init__": "zeros", 
        "__lr_mult__": "1.0", 
        "__shape__": "(512,)", 
        "__storage_type__": "0", 
        "__wd_mult__": "1.0"
      }, 
      "inputs": []
    }, 
    {
      "op": "Convolution", 
      "name": "ssd0_vggatrousextractor0_conv10_fwd", 
      "attrs": {
        "dilate": "(1, 1)", 
        "kernel": "(3, 3)", 
        "layout": "NCHW", 
        "no_bias": "False", 
        "num_filter": "512", 
        "num_group": "1", 
        "pad": "(1, 1)", 
        "stride": "(1, 1)"
      }, 
      "inputs": [[54, 0, 0], [55, 0, 0], [56, 0, 0]]
    }, 
    {
      "op": "Activation", 
      "name": "ssd0_vggatrousextractor0_relu10_fwd", 
      "attrs": {"act_type": "relu"}, 
      "inputs": [[57, 0, 0]]
    }, 
    {
      "op": "null", 
      "name": "ssd0_vggatrousextractor0_conv11_weight", 
      "attrs": {
        "__dtype__": "0", 
        "__init__": "[\"xavier\", {\"rnd_type\": \"gaussian\", \"factor_type\": \"out\", \"magnitude\": 2}]", 
        "__lr_mult__": "1.0", 
        "__shape__": "(512, 512, 3, 3)", 
        "__storage_type__": "0", 
        "__wd_mult__": "1.0"
      }, 
      "inputs": []
    }, 
    {
      "op": "null", 
      "name": "ssd0_vggatrousextractor0_conv11_bias", 
      "attrs": {
        "__dtype__": "0", 
        "__init__": "zeros", 
        "__lr_mult__": "1.0", 
        "__shape__": "(512,)", 
        "__storage_type__": "0", 
        "__wd_mult__": "1.0"
      }, 
      "inputs": []
    }, 
    {
      "op": "Convolution", 
      "name": "ssd0_vggatrousextractor0_conv11_fwd", 
      "attrs": {
        "dilate": "(1, 1)", 
        "kernel": "(3, 3)", 
        "layout": "NCHW", 
        "no_bias": "False", 
        "num_filter": "512", 
        "num_group": "1", 
        "pad": "(1, 1)", 
        "stride": "(1, 1)"
      }, 
      "inputs": [[58, 0, 0], [59, 0, 0], [60, 0, 0]]
    }, 
    {
      "op": "Activation", 
      "name": "ssd0_vggatrousextractor0_relu11_fwd", 
      "attrs": {"act_type": "relu"}, 
      "inputs": [[61, 0, 0]]
    }, 
    {
      "op": "null", 
      "name": "ssd0_vggatrousextractor0_conv12_weight", 
      "attrs": {
        "__dtype__": "0", 
        "__init__": "[\"xavier\", {\"rnd_type\": \"gaussian\", \"factor_type\": \"out\", \"magnitude\": 2}]", 
        "__lr_mult__": "1.0", 
        "__shape__": "(512, 512, 3, 3)", 
        "__storage_type__": "0", 
        "__wd_mult__": "1.0"
      }, 
      "inputs": []
    }, 
    {
      "op": "null", 
      "name": "ssd0_vggatrousextractor0_conv12_bias", 
      "attrs": {
        "__dtype__": "0", 
        "__init__": "zeros", 
        "__lr_mult__": "1.0", 
        "__shape__": "(512,)", 
        "__storage_type__": "0", 
        "__wd_mult__": "1.0"
      }, 
      "inputs": []
    }, 
    {
      "op": "Convolution", 
      "name": "ssd0_vggatrousextractor0_conv12_fwd", 
      "attrs": {
        "dilate": "(1, 1)", 
        "kernel": "(3, 3)", 
        "layout": "NCHW", 
        "no_bias": "False", 
        "num_filter": "512", 
        "num_group": "1", 
        "pad": "(1, 1)", 
        "stride": "(1, 1)"
      }, 
      "inputs": [[62, 0, 0], [63, 0, 0], [64, 0, 0]]
    }, 
    {
      "op": "Activation", 
      "name": "ssd0_vggatrousextractor0_relu12_fwd", 
      "attrs": {"act_type": "relu"}, 
      "inputs": [[65, 0, 0]]
    }, 
    {
      "op": "Pooling", 
      "name": "ssd0_vggatrousextractor0_pooling4", 
      "attrs": {
        "kernel": "(3, 3)", 
        "pad": "(1, 1)", 
        "pool_type": "max", 
        "pooling_convention": "full", 
        "stride": "(1, 1)"
      }, 
      "inputs": [[66, 0, 0]]
    }, 
    {
      "op": "null", 
      "name": "ssd0_vggatrousextractor0_dilated_conv0_weight", 
      "attrs": {
        "__dtype__": "0", 
        "__init__": "[\"xavier\", {\"rnd_type\": \"gaussian\", \"factor_type\": \"out\", \"magnitude\": 2}]", 
        "__lr_mult__": "1.0", 
        "__shape__": "(1024, 512, 3, 3)", 
        "__storage_type__": "0", 
        "__wd_mult__": "1.0"
      }, 
      "inputs": []
    }, 
    {
      "op": "null", 
      "name": "ssd0_vggatrousextractor0_dilated_conv0_bias", 
      "attrs": {
        "__dtype__": "0", 
        "__init__": "zeros", 
        "__lr_mult__": "1.0", 
        "__shape__": "(1024,)", 
        "__storage_type__": "0", 
        "__wd_mult__": "1.0"
      }, 
      "inputs": []
    }, 
    {
      "op": "Convolution", 
      "name": "ssd0_vggatrousextractor0_dilated_conv0_fwd", 
      "attrs": {
        "dilate": "(6, 6)", 
        "kernel": "(3, 3)", 
        "layout": "NCHW", 
        "no_bias": "False", 
        "num_filter": "1024", 
        "num_group": "1", 
        "pad": "(6, 6)", 
        "stride": "(1, 1)"
      }, 
      "inputs": [[67, 0, 0], [68, 0, 0], [69, 0, 0]]
    }, 
    {
      "op": "Activation", 
      "name": "ssd0_vggatrousextractor0_dilated_relu0_fwd", 
      "attrs": {"act_type": "relu"}, 
      "inputs": [[70, 0, 0]]
    }, 
    {
      "op": "null", 
      "name": "ssd0_vggatrousextractor0_dilated_conv1_weight", 
      "attrs": {
        "__dtype__": "0", 
        "__init__": "[\"xavier\", {\"rnd_type\": \"gaussian\", \"factor_type\": \"out\", \"magnitude\": 2}]", 
        "__lr_mult__": "1.0", 
        "__shape__": "(1024, 1024, 1, 1)", 
        "__storage_type__": "0", 
        "__wd_mult__": "1.0"
      }, 
      "inputs": []
    }, 
    {
      "op": "null", 
      "name": "ssd0_vggatrousextractor0_dilated_conv1_bias", 
      "attrs": {
        "__dtype__": "0", 
        "__init__": "zeros", 
        "__lr_mult__": "1.0", 
        "__shape__": "(1024,)", 
        "__storage_type__": "0", 
        "__wd_mult__": "1.0"
      }, 
      "inputs": []
    }, 
    {
      "op": "Convolution", 
      "name": "ssd0_vggatrousextractor0_dilated_conv1_fwd", 
      "attrs": {
        "dilate": "(1, 1)", 
        "kernel": "(1, 1)", 
        "layout": "NCHW", 
        "no_bias": "False", 
        "num_filter": "1024", 
        "num_group": "1", 
        "pad": "(0, 0)", 
        "stride": "(1, 1)"
      }, 
      "inputs": [[71, 0, 0], [72, 0, 0], [73, 0, 0]]
    }, 
    {
      "op": "Activation", 
      "name": "ssd0_vggatrousextractor0_dilated_relu1_fwd", 
      "attrs": {"act_type": "relu"}, 
      "inputs": [[74, 0, 0]]
    }, 
    {
      "op": "null", 
      "name": "ssd0_convpredictor2_conv0_weight", 
      "attrs": {
        "__dtype__": "0", 
        "__init__": "[\"xavier\", {\"rnd_type\": \"uniform\", \"factor_type\": \"avg\", \"magnitude\": 2}]", 
        "__lr_mult__": "1.0", 
        "__shape__": "(126, 1024, 3, 3)", 
        "__storage_type__": "0", 
        "__wd_mult__": "1.0"
      }, 
      "inputs": []
    }, 
    {
      "op": "null", 
      "name": "ssd0_convpredictor2_conv0_bias", 
      "attrs": {
        "__dtype__": "0", 
        "__init__": "zeros", 
        "__lr_mult__": "1.0", 
        "__shape__": "(126,)", 
        "__storage_type__": "0", 
        "__wd_mult__": "1.0"
      }, 
      "inputs": []
    }, 
    {
      "op": "Convolution", 
      "name": "ssd0_convpredictor2_conv0_fwd", 
      "attrs": {
        "dilate": "(1, 1)", 
        "kernel": "(3, 3)", 
        "layout": "NCHW", 
        "no_bias": "False", 
        "num_filter": "126", 
        "num_group": "1", 
        "pad": "(1, 1)", 
        "stride": "(1, 1)"
      }, 
      "inputs": [[75, 0, 0], [76, 0, 0], [77, 0, 0]]
    }, 
    {
      "op": "transpose", 
      "name": "ssd0_transpose1", 
      "attrs": {"axes": "(0, 2, 3, 1)"}, 
      "inputs": [[78, 0, 0]]
    }, 
    {
      "op": "Flatten", 
      "name": "ssd0_flatten1", 
      "inputs": [[79, 0, 0]]
    }, 
    {
      "op": "null", 
      "name": "ssd0_vggatrousextractor0_extra0_conv0_weight", 
      "attrs": {
        "__dtype__": "0", 
        "__init__": "[\"xavier\", {\"rnd_type\": \"gaussian\", \"factor_type\": \"out\", \"magnitude\": 2}]", 
        "__lr_mult__": "1.0", 
        "__shape__": "(256, 1024, 1, 1)", 
        "__storage_type__": "0", 
        "__wd_mult__": "1.0"
      }, 
      "inputs": []
    }, 
    {
      "op": "null", 
      "name": "ssd0_vggatrousextractor0_extra0_conv0_bias", 
      "attrs": {
        "__dtype__": "0", 
        "__init__": "zeros", 
        "__lr_mult__": "1.0", 
        "__shape__": "(256,)", 
        "__storage_type__": "0", 
        "__wd_mult__": "1.0"
      }, 
      "inputs": []
    }, 
    {
      "op": "Convolution", 
      "name": "ssd0_vggatrousextractor0_extra0_conv0_fwd", 
      "attrs": {
        "dilate": "(1, 1)", 
        "kernel": "(1, 1)", 
        "layout": "NCHW", 
        "no_bias": "False", 
        "num_filter": "256", 
        "num_group": "1", 
        "pad": "(0, 0)", 
        "stride": "(1, 1)"
      }, 
      "inputs": [[75, 0, 0], [81, 0, 0], [82, 0, 0]]
    }, 
    {
      "op": "Activation", 
      "name": "ssd0_vggatrousextractor0_extra0_relu0_fwd", 
      "attrs": {"act_type": "relu"}, 
      "inputs": [[83, 0, 0]]
    }, 
    {
      "op": "null", 
      "name": "ssd0_vggatrousextractor0_extra0_conv1_weight", 
      "attrs": {
        "__dtype__": "0", 
        "__init__": "[\"xavier\", {\"rnd_type\": \"gaussian\", \"factor_type\": \"out\", \"magnitude\": 2}]", 
        "__lr_mult__": "1.0", 
        "__shape__": "(512, 256, 3, 3)", 
        "__storage_type__": "0", 
        "__wd_mult__": "1.0"
      }, 
      "inputs": []
    }, 
    {
      "op": "null", 
      "name": "ssd0_vggatrousextractor0_extra0_conv1_bias", 
      "attrs": {
        "__dtype__": "0", 
        "__init__": "zeros", 
        "__lr_mult__": "1.0", 
        "__shape__": "(512,)", 
        "__storage_type__": "0", 
        "__wd_mult__": "1.0"
      }, 
      "inputs": []
    }, 
    {
      "op": "Convolution", 
      "name": "ssd0_vggatrousextractor0_extra0_conv1_fwd", 
      "attrs": {
        "dilate": "(1, 1)", 
        "kernel": "(3, 3)", 
        "layout": "NCHW", 
        "no_bias": "False", 
        "num_filter": "512", 
        "num_group": "1", 
        "pad": "(1, 1)", 
        "stride": "(2, 2)"
      }, 
      "inputs": [[84, 0, 0], [85, 0, 0], [86, 0, 0]]
    }, 
    {
      "op": "Activation", 
      "name": "ssd0_vggatrousextractor0_extra0_relu1_fwd", 
      "attrs": {"act_type": "relu"}, 
      "inputs": [[87, 0, 0]]
    }, 
    {
      "op": "null", 
      "name": "ssd0_convpredictor4_conv0_weight", 
      "attrs": {
        "__dtype__": "0", 
        "__init__": "[\"xavier\", {\"rnd_type\": \"uniform\", \"factor_type\": \"avg\", \"magnitude\": 2}]", 
        "__lr_mult__": "1.0", 
        "__shape__": "(126, 512, 3, 3)", 
        "__storage_type__": "0", 
        "__wd_mult__": "1.0"
      }, 
      "inputs": []
    }, 
    {
      "op": "null", 
      "name": "ssd0_convpredictor4_conv0_bias", 
      "attrs": {
        "__dtype__": "0", 
        "__init__": "zeros", 
        "__lr_mult__": "1.0", 
        "__shape__": "(126,)", 
        "__storage_type__": "0", 
        "__wd_mult__": "1.0"
      }, 
      "inputs": []
    }, 
    {
      "op": "Convolution", 
      "name": "ssd0_convpredictor4_conv0_fwd", 
      "attrs": {
        "dilate": "(1, 1)", 
        "kernel": "(3, 3)", 
        "layout": "NCHW", 
        "no_bias": "False", 
        "num_filter": "126", 
        "num_group": "1", 
        "pad": "(1, 1)", 
        "stride": "(1, 1)"
      }, 
      "inputs": [[88, 0, 0], [89, 0, 0], [90, 0, 0]]
    }, 
    {
      "op": "transpose", 
      "name": "ssd0_transpose2", 
      "attrs": {"axes": "(0, 2, 3, 1)"}, 
      "inputs": [[91, 0, 0]]
    }, 
    {
      "op": "Flatten", 
      "name": "ssd0_flatten2", 
      "inputs": [[92, 0, 0]]
    }, 
    {
      "op": "null", 
      "name": "ssd0_vggatrousextractor0_extra1_conv0_weight", 
      "attrs": {
        "__dtype__": "0", 
        "__init__": "[\"xavier\", {\"rnd_type\": \"gaussian\", \"factor_type\": \"out\", \"magnitude\": 2}]", 
        "__lr_mult__": "1.0", 
        "__shape__": "(128, 512, 1, 1)", 
        "__storage_type__": "0", 
        "__wd_mult__": "1.0"
      }, 
      "inputs": []
    }, 
    {
      "op": "null", 
      "name": "ssd0_vggatrousextractor0_extra1_conv0_bias", 
      "attrs": {
        "__dtype__": "0", 
        "__init__": "zeros", 
        "__lr_mult__": "1.0", 
        "__shape__": "(128,)", 
        "__storage_type__": "0", 
        "__wd_mult__": "1.0"
      }, 
      "inputs": []
    }, 
    {
      "op": "Convolution", 
      "name": "ssd0_vggatrousextractor0_extra1_conv0_fwd", 
      "attrs": {
        "dilate": "(1, 1)", 
        "kernel": "(1, 1)", 
        "layout": "NCHW", 
        "no_bias": "False", 
        "num_filter": "128", 
        "num_group": "1", 
        "pad": "(0, 0)", 
        "stride": "(1, 1)"
      }, 
      "inputs": [[88, 0, 0], [94, 0, 0], [95, 0, 0]]
    }, 
    {
      "op": "Activation", 
      "name": "ssd0_vggatrousextractor0_extra1_relu0_fwd", 
      "attrs": {"act_type": "relu"}, 
      "inputs": [[96, 0, 0]]
    }, 
    {
      "op": "null", 
      "name": "ssd0_vggatrousextractor0_extra1_conv1_weight", 
      "attrs": {
        "__dtype__": "0", 
        "__init__": "[\"xavier\", {\"rnd_type\": \"gaussian\", \"factor_type\": \"out\", \"magnitude\": 2}]", 
        "__lr_mult__": "1.0", 
        "__shape__": "(256, 128, 3, 3)", 
        "__storage_type__": "0", 
        "__wd_mult__": "1.0"
      }, 
      "inputs": []
    }, 
    {
      "op": "null", 
      "name": "ssd0_vggatrousextractor0_extra1_conv1_bias", 
      "attrs": {
        "__dtype__": "0", 
        "__init__": "zeros", 
        "__lr_mult__": "1.0", 
        "__shape__": "(256,)", 
        "__storage_type__": "0", 
        "__wd_mult__": "1.0"
      }, 
      "inputs": []
    }, 
    {
      "op": "Convolution", 
      "name": "ssd0_vggatrousextractor0_extra1_conv1_fwd", 
      "attrs": {
        "dilate": "(1, 1)", 
        "kernel": "(3, 3)", 
        "layout": "NCHW", 
        "no_bias": "False", 
        "num_filter": "256", 
        "num_group": "1", 
        "pad": "(1, 1)", 
        "stride": "(2, 2)"
      }, 
      "inputs": [[97, 0, 0], [98, 0, 0], [99, 0, 0]]
    }, 
    {
      "op": "Activation", 
      "name": "ssd0_vggatrousextractor0_extra1_relu1_fwd", 
      "attrs": {"act_type": "relu"}, 
      "inputs": [[100, 0, 0]]
    }, 
    {
      "op": "null", 
      "name": "ssd0_convpredictor6_conv0_weight", 
      "attrs": {
        "__dtype__": "0", 
        "__init__": "[\"xavier\", {\"rnd_type\": \"uniform\", \"factor_type\": \"avg\", \"magnitude\": 2}]", 
        "__lr_mult__": "1.0", 
        "__shape__": "(126, 256, 3, 3)", 
        "__storage_type__": "0", 
        "__wd_mult__": "1.0"
      }, 
      "inputs": []
    }, 
    {
      "op": "null", 
      "name": "ssd0_convpredictor6_conv0_bias", 
      "attrs": {
        "__dtype__": "0", 
        "__init__": "zeros", 
        "__lr_mult__": "1.0", 
        "__shape__": "(126,)", 
        "__storage_type__": "0", 
        "__wd_mult__": "1.0"
      }, 
      "inputs": []
    }, 
    {
      "op": "Convolution", 
      "name": "ssd0_convpredictor6_conv0_fwd", 
      "attrs": {
        "dilate": "(1, 1)", 
        "kernel": "(3, 3)", 
        "layout": "NCHW", 
        "no_bias": "False", 
        "num_filter": "126", 
        "num_group": "1", 
        "pad": "(1, 1)", 
        "stride": "(1, 1)"
      }, 
      "inputs": [[101, 0, 0], [102, 0, 0], [103, 0, 0]]
    }, 
    {
      "op": "transpose", 
      "name": "ssd0_transpose3", 
      "attrs": {"axes": "(0, 2, 3, 1)"}, 
      "inputs": [[104, 0, 0]]
    }, 
    {
      "op": "Flatten", 
      "name": "ssd0_flatten3", 
      "inputs": [[105, 0, 0]]
    }, 
    {
      "op": "null", 
      "name": "ssd0_vggatrousextractor0_extra2_conv0_weight", 
      "attrs": {
        "__dtype__": "0", 
        "__init__": "[\"xavier\", {\"rnd_type\": \"gaussian\", \"factor_type\": \"out\", \"magnitude\": 2}]", 
        "__lr_mult__": "1.0", 
        "__shape__": "(128, 256, 1, 1)", 
        "__storage_type__": "0", 
        "__wd_mult__": "1.0"
      }, 
      "inputs": []
    }, 
    {
      "op": "null", 
      "name": "ssd0_vggatrousextractor0_extra2_conv0_bias", 
      "attrs": {
        "__dtype__": "0", 
        "__init__": "zeros", 
        "__lr_mult__": "1.0", 
        "__shape__": "(128,)", 
        "__storage_type__": "0", 
        "__wd_mult__": "1.0"
      }, 
      "inputs": []
    }, 
    {
      "op": "Convolution", 
      "name": "ssd0_vggatrousextractor0_extra2_conv0_fwd", 
      "attrs": {
        "dilate": "(1, 1)", 
        "kernel": "(1, 1)", 
        "layout": "NCHW", 
        "no_bias": "False", 
        "num_filter": "128", 
        "num_group": "1", 
        "pad": "(0, 0)", 
        "stride": "(1, 1)"
      }, 
      "inputs": [[101, 0, 0], [107, 0, 0], [108, 0, 0]]
    }, 
    {
      "op": "Activation", 
      "name": "ssd0_vggatrousextractor0_extra2_relu0_fwd", 
      "attrs": {"act_type": "relu"}, 
      "inputs": [[109, 0, 0]]
    }, 
    {
      "op": "null", 
      "name": "ssd0_vggatrousextractor0_extra2_conv1_weight", 
      "attrs": {
        "__dtype__": "0", 
        "__init__": "[\"xavier\", {\"rnd_type\": \"gaussian\", \"factor_type\": \"out\", \"magnitude\": 2}]", 
        "__lr_mult__": "1.0", 
        "__shape__": "(256, 128, 3, 3)", 
        "__storage_type__": "0", 
        "__wd_mult__": "1.0"
      }, 
      "inputs": []
    }, 
    {
      "op": "null", 
      "name": "ssd0_vggatrousextractor0_extra2_conv1_bias", 
      "attrs": {
        "__dtype__": "0", 
        "__init__": "zeros", 
        "__lr_mult__": "1.0", 
        "__shape__": "(256,)", 
        "__storage_type__": "0", 
        "__wd_mult__": "1.0"
      }, 
      "inputs": []
    }, 
    {
      "op": "Convolution", 
      "name": "ssd0_vggatrousextractor0_extra2_conv1_fwd", 
      "attrs": {
        "dilate": "(1, 1)", 
        "kernel": "(3, 3)", 
        "layout": "NCHW", 
        "no_bias": "False", 
        "num_filter": "256", 
        "num_group": "1", 
        "pad": "(0, 0)", 
        "stride": "(1, 1)"
      }, 
      "inputs": [[110, 0, 0], [111, 0, 0], [112, 0, 0]]
    }, 
    {
      "op": "Activation", 
      "name": "ssd0_vggatrousextractor0_extra2_relu1_fwd", 
      "attrs": {"act_type": "relu"}, 
      "inputs": [[113, 0, 0]]
    }, 
    {
      "op": "null", 
      "name": "ssd0_convpredictor8_conv0_weight", 
      "attrs": {
        "__dtype__": "0", 
        "__init__": "[\"xavier\", {\"rnd_type\": \"uniform\", \"factor_type\": \"avg\", \"magnitude\": 2}]", 
        "__lr_mult__": "1.0", 
        "__shape__": "(84, 256, 3, 3)", 
        "__storage_type__": "0", 
        "__wd_mult__": "1.0"
      }, 
      "inputs": []
    }, 
    {
      "op": "null", 
      "name": "ssd0_convpredictor8_conv0_bias", 
      "attrs": {
        "__dtype__": "0", 
        "__init__": "zeros", 
        "__lr_mult__": "1.0", 
        "__shape__": "(84,)", 
        "__storage_type__": "0", 
        "__wd_mult__": "1.0"
      }, 
      "inputs": []
    }, 
    {
      "op": "Convolution", 
      "name": "ssd0_convpredictor8_conv0_fwd", 
      "attrs": {
        "dilate": "(1, 1)", 
        "kernel": "(3, 3)", 
        "layout": "NCHW", 
        "no_bias": "False", 
        "num_filter": "84", 
        "num_group": "1", 
        "pad": "(1, 1)", 
        "stride": "(1, 1)"
      }, 
      "inputs": [[114, 0, 0], [115, 0, 0], [116, 0, 0]]
    }, 
    {
      "op": "transpose", 
      "name": "ssd0_transpose4", 
      "attrs": {"axes": "(0, 2, 3, 1)"}, 
      "inputs": [[117, 0, 0]]
    }, 
    {
      "op": "Flatten", 
      "name": "ssd0_flatten4", 
      "inputs": [[118, 0, 0]]
    }, 
    {
      "op": "null", 
      "name": "ssd0_vggatrousextractor0_extra3_conv0_weight", 
      "attrs": {
        "__dtype__": "0", 
        "__init__": "[\"xavier\", {\"rnd_type\": \"gaussian\", \"factor_type\": \"out\", \"magnitude\": 2}]", 
        "__lr_mult__": "1.0", 
        "__shape__": "(128, 256, 1, 1)", 
        "__storage_type__": "0", 
        "__wd_mult__": "1.0"
      }, 
      "inputs": []
    }, 
    {
      "op": "null", 
      "name": "ssd0_vggatrousextractor0_extra3_conv0_bias", 
      "attrs": {
        "__dtype__": "0", 
        "__init__": "zeros", 
        "__lr_mult__": "1.0", 
        "__shape__": "(128,)", 
        "__storage_type__": "0", 
        "__wd_mult__": "1.0"
      }, 
      "inputs": []
    }, 
    {
      "op": "Convolution", 
      "name": "ssd0_vggatrousextractor0_extra3_conv0_fwd", 
      "attrs": {
        "dilate": "(1, 1)", 
        "kernel": "(1, 1)", 
        "layout": "NCHW", 
        "no_bias": "False", 
        "num_filter": "128", 
        "num_group": "1", 
        "pad": "(0, 0)", 
        "stride": "(1, 1)"
      }, 
      "inputs": [[114, 0, 0], [120, 0, 0], [121, 0, 0]]
    }, 
    {
      "op": "Activation", 
      "name": "ssd0_vggatrousextractor0_extra3_relu0_fwd", 
      "attrs": {"act_type": "relu"}, 
      "inputs": [[122, 0, 0]]
    }, 
    {
      "op": "null", 
      "name": "ssd0_vggatrousextractor0_extra3_conv1_weight", 
      "attrs": {
        "__dtype__": "0", 
        "__init__": "[\"xavier\", {\"rnd_type\": \"gaussian\", \"factor_type\": \"out\", \"magnitude\": 2}]", 
        "__lr_mult__": "1.0", 
        "__shape__": "(256, 128, 3, 3)", 
        "__storage_type__": "0", 
        "__wd_mult__": "1.0"
      }, 
      "inputs": []
    }, 
    {
      "op": "null", 
      "name": "ssd0_vggatrousextractor0_extra3_conv1_bias", 
      "attrs": {
        "__dtype__": "0", 
        "__init__": "zeros", 
        "__lr_mult__": "1.0", 
        "__shape__": "(256,)", 
        "__storage_type__": "0", 
        "__wd_mult__": "1.0"
      }, 
      "inputs": []
    }, 
    {
      "op": "Convolution", 
      "name": "ssd0_vggatrousextractor0_extra3_conv1_fwd", 
      "attrs": {
        "dilate": "(1, 1)", 
        "kernel": "(3, 3)", 
        "layout": "NCHW", 
        "no_bias": "False", 
        "num_filter": "256", 
        "num_group": "1", 
        "pad": "(0, 0)", 
        "stride": "(1, 1)"
      }, 
      "inputs": [[123, 0, 0], [124, 0, 0], [125, 0, 0]]
    }, 
    {
      "op": "Activation", 
      "name": "ssd0_vggatrousextractor0_extra3_relu1_fwd", 
      "attrs": {"act_type": "relu"}, 
      "inputs": [[126, 0, 0]]
    }, 
    {
      "op": "null", 
      "name": "ssd0_convpredictor10_conv0_weight", 
      "attrs": {
        "__dtype__": "0", 
        "__init__": "[\"xavier\", {\"rnd_type\": \"uniform\", \"factor_type\": \"avg\", \"magnitude\": 2}]", 
        "__lr_mult__": "1.0", 
        "__shape__": "(84, 256, 3, 3)", 
        "__storage_type__": "0", 
        "__wd_mult__": "1.0"
      }, 
      "inputs": []
    }, 
    {
      "op": "null", 
      "name": "ssd0_convpredictor10_conv0_bias", 
      "attrs": {
        "__dtype__": "0", 
        "__init__": "zeros", 
        "__lr_mult__": "1.0", 
        "__shape__": "(84,)", 
        "__storage_type__": "0", 
        "__wd_mult__": "1.0"
      }, 
      "inputs": []
    }, 
    {
      "op": "Convolution", 
      "name": "ssd0_convpredictor10_conv0_fwd", 
      "attrs": {
        "dilate": "(1, 1)", 
        "kernel": "(3, 3)", 
        "layout": "NCHW", 
        "no_bias": "False", 
        "num_filter": "84", 
        "num_group": "1", 
        "pad": "(1, 1)", 
        "stride": "(1, 1)"
      }, 
      "inputs": [[127, 0, 0], [128, 0, 0], [129, 0, 0]]
    }, 
    {
      "op": "transpose", 
      "name": "ssd0_transpose5", 
      "attrs": {"axes": "(0, 2, 3, 1)"}, 
      "inputs": [[130, 0, 0]]
    }, 
    {
      "op": "Flatten", 
      "name": "ssd0_flatten5", 
      "inputs": [[131, 0, 0]]
    }, 
    {
      "op": "Concat", 
      "name": "ssd0_concat0", 
      "attrs": {
        "dim": "1", 
        "num_args": "6"
      }, 
      "inputs": [[53, 0, 0], [80, 0, 0], [93, 0, 0], [106, 0, 0], [119, 0, 0], [132, 0, 0]]
    }, 
    {
      "op": "Reshape", 
      "name": "ssd0_reshape6", 
      "attrs": {"shape": "(0, -1, 21)"}, 
      "inputs": [[133, 0, 0]]
    }, 
    {
      "op": "softmax", 
      "name": "ssd0_softmax0", 
      "attrs": {"axis": "-1"}, 
      "inputs": [[134, 0, 0]]
    }, 
    {
      "op": "slice_axis", 
      "name": "ssd0_multiperclassdecoder0_slice_axis0", 
      "attrs": {
        "axis": "-1", 
        "begin": "1", 
        "end": "None"
      }, 
      "inputs": [[135, 0, 0]]
    }, 
    {
      "op": "_greater_scalar", 
      "name": "ssd0_multiperclassdecoder0__greater_scalar0", 
      "attrs": {"scalar": "0.01"}, 
      "inputs": [[136, 0, 0]]
    }, 
    {
      "op": "slice_axis", 
      "name": "ssd0_multiperclassdecoder0_slice_axis1", 
      "attrs": {
        "axis": "-1", 
        "begin": "0", 
        "end": "1"
      }, 
      "inputs": [[135, 0, 0]]
    }, 
    {
      "op": "zeros_like", 
      "name": "ssd0_multiperclassdecoder0_zeros_like0", 
      "inputs": [[138, 0, 0]]
    }, 
    {
      "op": "_plus_scalar", 
      "name": "ssd0_multiperclassdecoder0__plusscalar0", 
      "attrs": {"scalar": "0"}, 
      "inputs": [[139, 0, 0]]
    }, 
    {
      "op": "_plus_scalar", 
      "name": "ssd0_multiperclassdecoder0__plusscalar1", 
      "attrs": {"scalar": "1"}, 
      "inputs": [[139, 0, 0]]
    }, 
    {
      "op": "_plus_scalar", 
      "name": "ssd0_multiperclassdecoder0__plusscalar2", 
      "attrs": {"scalar": "2"}, 
      "inputs": [[139, 0, 0]]
    }, 
    {
      "op": "_plus_scalar", 
      "name": "ssd0_multiperclassdecoder0__plusscalar3", 
      "attrs": {"scalar": "3"}, 
      "inputs": [[139, 0, 0]]
    }, 
    {
      "op": "_plus_scalar", 
      "name": "ssd0_multiperclassdecoder0__plusscalar4", 
      "attrs": {"scalar": "4"}, 
      "inputs": [[139, 0, 0]]
    }, 
    {
      "op": "_plus_scalar", 
      "name": "ssd0_multiperclassdecoder0__plusscalar5", 
      "attrs": {"scalar": "5"}, 
      "inputs": [[139, 0, 0]]
    }, 
    {
      "op": "_plus_scalar", 
      "name": "ssd0_multiperclassdecoder0__plusscalar6", 
      "attrs": {"scalar": "6"}, 
      "inputs": [[139, 0, 0]]
    }, 
    {
      "op": "_plus_scalar", 
      "name": "ssd0_multiperclassdecoder0__plusscalar7", 
      "attrs": {"scalar": "7"}, 
      "inputs": [[139, 0, 0]]
    }, 
    {
      "op": "_plus_scalar", 
      "name": "ssd0_multiperclassdecoder0__plusscalar8", 
      "attrs": {"scalar": "8"}, 
      "inputs": [[139, 0, 0]]
    }, 
    {
      "op": "_plus_scalar", 
      "name": "ssd0_multiperclassdecoder0__plusscalar9", 
      "attrs": {"scalar": "9"}, 
      "inputs": [[139, 0, 0]]
    }, 
    {
      "op": "_plus_scalar", 
      "name": "ssd0_multiperclassdecoder0__plusscalar10", 
      "attrs": {"scalar": "10"}, 
      "inputs": [[139, 0, 0]]
    }, 
    {
      "op": "_plus_scalar", 
      "name": "ssd0_multiperclassdecoder0__plusscalar11", 
      "attrs": {"scalar": "11"}, 
      "inputs": [[139, 0, 0]]
    }, 
    {
      "op": "_plus_scalar", 
      "name": "ssd0_multiperclassdecoder0__plusscalar12", 
      "attrs": {"scalar": "12"}, 
      "inputs": [[139, 0, 0]]
    }, 
    {
      "op": "_plus_scalar", 
      "name": "ssd0_multiperclassdecoder0__plusscalar13", 
      "attrs": {"scalar": "13"}, 
      "inputs": [[139, 0, 0]]
    }, 
    {
      "op": "_plus_scalar", 
      "name": "ssd0_multiperclassdecoder0__plusscalar14", 
      "attrs": {"scalar": "14"}, 
      "inputs": [[139, 0, 0]]
    }, 
    {
      "op": "_plus_scalar", 
      "name": "ssd0_multiperclassdecoder0__plusscalar15", 
      "attrs": {"scalar": "15"}, 
      "inputs": [[139, 0, 0]]
    }, 
    {
      "op": "_plus_scalar", 
      "name": "ssd0_multiperclassdecoder0__plusscalar16", 
      "attrs": {"scalar": "16"}, 
      "inputs": [[139, 0, 0]]
    }, 
    {
      "op": "_plus_scalar", 
      "name": "ssd0_multiperclassdecoder0__plusscalar17", 
      "attrs": {"scalar": "17"}, 
      "inputs": [[139, 0, 0]]
    }, 
    {
      "op": "_plus_scalar", 
      "name": "ssd0_multiperclassdecoder0__plusscalar18", 
      "attrs": {"scalar": "18"}, 
      "inputs": [[139, 0, 0]]
    }, 
    {
      "op": "_plus_scalar", 
      "name": "ssd0_multiperclassdecoder0__plusscalar19", 
      "attrs": {"scalar": "19"}, 
      "inputs": [[139, 0, 0]]
    }, 
    {
      "op": "Concat", 
      "name": "ssd0_multiperclassdecoder0_concat0", 
      "attrs": {
        "dim": "-1", 
        "num_args": "20"
      }, 
      "inputs": [
        [140, 0, 0], 
        [141, 0, 0], 
        [142, 0, 0], 
        [143, 0, 0], 
        [144, 0, 0], 
        [145, 0, 0], 
        [146, 0, 0], 
        [147, 0, 0], 
        [148, 0, 0], 
        [149, 0, 0], 
        [150, 0, 0], 
        [151, 0, 0], 
        [152, 0, 0], 
        [153, 0, 0], 
        [154, 0, 0], 
        [155, 0, 0], 
        [156, 0, 0], 
        [157, 0, 0], 
        [158, 0, 0], 
        [159, 0, 0]
      ]
    }, 
    {
      "op": "ones_like", 
      "name": "ssd0_multiperclassdecoder0_ones_like0", 
      "inputs": [[160, 0, 0]]
    }, 
    {
      "op": "_mul_scalar", 
      "name": "ssd0_multiperclassdecoder0__mulscalar0", 
      "attrs": {"scalar": "-1"}, 
      "inputs": [[161, 0, 0]]
    }, 
    {
      "op": "where", 
      "name": "ssd0_multiperclassdecoder0_where0", 
      "inputs": [[137, 0, 0], [160, 0, 0], [162, 0, 0]]
    }, 
    {
      "op": "slice_axis", 
      "name": "ssd0_slice_axis0", 
      "attrs": {
        "axis": "-1", 
        "begin": "0", 
        "end": "1"
      }, 
      "inputs": [[163, 0, 0]]
    }, 
    {
      "op": "zeros_like", 
      "name": "ssd0_multiperclassdecoder0_zeros_like1", 
      "inputs": [[136, 0, 0]]
    }, 
    {
      "op": "where", 
      "name": "ssd0_multiperclassdecoder0_where1", 
      "inputs": [[137, 0, 0], [136, 0, 0], [165, 0, 0]]
    }, 
    {
      "op": "slice_axis", 
      "name": "ssd0_slice_axis1", 
      "attrs": {
        "axis": "-1", 
        "begin": "0", 
        "end": "1"
      }, 
      "inputs": [[166, 0, 0]]
    }, 
    {
      "op": "null", 
      "name": "ssd0_convpredictor1_conv0_weight", 
      "attrs": {
        "__dtype__": "0", 
        "__init__": "[\"xavier\", {\"rnd_type\": \"uniform\", \"factor_type\": \"avg\", \"magnitude\": 2}]", 
        "__lr_mult__": "1.0", 
        "__shape__": "(16, 512, 3, 3)", 
        "__storage_type__": "0", 
        "__wd_mult__": "1.0"
      }, 
      "inputs": []
    }, 
    {
      "op": "null", 
      "name": "ssd0_convpredictor1_conv0_bias", 
      "attrs": {
        "__dtype__": "0", 
        "__init__": "zeros", 
        "__lr_mult__": "1.0", 
        "__shape__": "(16,)", 
        "__storage_type__": "0", 
        "__wd_mult__": "1.0"
      }, 
      "inputs": []
    }, 
    {
      "op": "Convolution", 
      "name": "ssd0_convpredictor1_conv0_fwd", 
      "attrs": {
        "dilate": "(1, 1)", 
        "kernel": "(3, 3)", 
        "layout": "NCHW", 
        "no_bias": "False", 
        "num_filter": "16", 
        "num_group": "1", 
        "pad": "(1, 1)", 
        "stride": "(1, 1)"
      }, 
      "inputs": [[48, 0, 0], [168, 0, 0], [169, 0, 0]]
    }, 
    {
      "op": "transpose", 
      "name": "ssd0_transpose6", 
      "attrs": {"axes": "(0, 2, 3, 1)"}, 
      "inputs": [[170, 0, 0]]
    }, 
    {
      "op": "Flatten", 
      "name": "ssd0_flatten6", 
      "inputs": [[171, 0, 0]]
    }, 
    {
      "op": "null", 
      "name": "ssd0_convpredictor3_conv0_weight", 
      "attrs": {
        "__dtype__": "0", 
        "__init__": "[\"xavier\", {\"rnd_type\": \"uniform\", \"factor_type\": \"avg\", \"magnitude\": 2}]", 
        "__lr_mult__": "1.0", 
        "__shape__": "(24, 1024, 3, 3)", 
        "__storage_type__": "0", 
        "__wd_mult__": "1.0"
      }, 
      "inputs": []
    }, 
    {
      "op": "null", 
      "name": "ssd0_convpredictor3_conv0_bias", 
      "attrs": {
        "__dtype__": "0", 
        "__init__": "zeros", 
        "__lr_mult__": "1.0", 
        "__shape__": "(24,)", 
        "__storage_type__": "0", 
        "__wd_mult__": "1.0"
      }, 
      "inputs": []
    }, 
    {
      "op": "Convolution", 
      "name": "ssd0_convpredictor3_conv0_fwd", 
      "attrs": {
        "dilate": "(1, 1)", 
        "kernel": "(3, 3)", 
        "layout": "NCHW", 
        "no_bias": "False", 
        "num_filter": "24", 
        "num_group": "1", 
        "pad": "(1, 1)", 
        "stride": "(1, 1)"
      }, 
      "inputs": [[75, 0, 0], [173, 0, 0], [174, 0, 0]]
    }, 
    {
      "op": "transpose", 
      "name": "ssd0_transpose7", 
      "attrs": {"axes": "(0, 2, 3, 1)"}, 
      "inputs": [[175, 0, 0]]
    }, 
    {
      "op": "Flatten", 
      "name": "ssd0_flatten7", 
      "inputs": [[176, 0, 0]]
    }, 
    {
      "op": "null", 
      "name": "ssd0_convpredictor5_conv0_weight", 
      "attrs": {
        "__dtype__": "0", 
        "__init__": "[\"xavier\", {\"rnd_type\": \"uniform\", \"factor_type\": \"avg\", \"magnitude\": 2}]", 
        "__lr_mult__": "1.0", 
        "__shape__": "(24, 512, 3, 3)", 
        "__storage_type__": "0", 
        "__wd_mult__": "1.0"
      }, 
      "inputs": []
    }, 
    {
      "op": "null", 
      "name": "ssd0_convpredictor5_conv0_bias", 
      "attrs": {
        "__dtype__": "0", 
        "__init__": "zeros", 
        "__lr_mult__": "1.0", 
        "__shape__": "(24,)", 
        "__storage_type__": "0", 
        "__wd_mult__": "1.0"
      }, 
      "inputs": []
    }, 
    {
      "op": "Convolution", 
      "name": "ssd0_convpredictor5_conv0_fwd", 
      "attrs": {
        "dilate": "(1, 1)", 
        "kernel": "(3, 3)", 
        "layout": "NCHW", 
        "no_bias": "False", 
        "num_filter": "24", 
        "num_group": "1", 
        "pad": "(1, 1)", 
        "stride": "(1, 1)"
      }, 
      "inputs": [[88, 0, 0], [178, 0, 0], [179, 0, 0]]
    }, 
    {
      "op": "transpose", 
      "name": "ssd0_transpose8", 
      "attrs": {"axes": "(0, 2, 3, 1)"}, 
      "inputs": [[180, 0, 0]]
    }, 
    {
      "op": "Flatten", 
      "name": "ssd0_flatten8", 
      "inputs": [[181, 0, 0]]
    }, 
    {
      "op": "null", 
      "name": "ssd0_convpredictor7_conv0_weight", 
      "attrs": {
        "__dtype__": "0", 
        "__init__": "[\"xavier\", {\"rnd_type\": \"uniform\", \"factor_type\": \"avg\", \"magnitude\": 2}]", 
        "__lr_mult__": "1.0", 
        "__shape__": "(24, 256, 3, 3)", 
        "__storage_type__": "0", 
        "__wd_mult__": "1.0"
      }, 
      "inputs": []
    }, 
    {
      "op": "null", 
      "name": "ssd0_convpredictor7_conv0_bias", 
      "attrs": {
        "__dtype__": "0", 
        "__init__": "zeros", 
        "__lr_mult__": "1.0", 
        "__shape__": "(24,)", 
        "__storage_type__": "0", 
        "__wd_mult__": "1.0"
      }, 
      "inputs": []
    }, 
    {
      "op": "Convolution", 
      "name": "ssd0_convpredictor7_conv0_fwd", 
      "attrs": {
        "dilate": "(1, 1)", 
        "kernel": "(3, 3)", 
        "layout": "NCHW", 
        "no_bias": "False", 
        "num_filter": "24", 
        "num_group": "1", 
        "pad": "(1, 1)", 
        "stride": "(1, 1)"
      }, 
      "inputs": [[101, 0, 0], [183, 0, 0], [184, 0, 0]]
    }, 
    {
      "op": "transpose", 
      "name": "ssd0_transpose9", 
      "attrs": {"axes": "(0, 2, 3, 1)"}, 
      "inputs": [[185, 0, 0]]
    }, 
    {
      "op": "Flatten", 
      "name": "ssd0_flatten9", 
      "inputs": [[186, 0, 0]]
    }, 
    {
      "op": "null", 
      "name": "ssd0_convpredictor9_conv0_weight", 
      "attrs": {
        "__dtype__": "0", 
        "__init__": "[\"xavier\", {\"rnd_type\": \"uniform\", \"factor_type\": \"avg\", \"magnitude\": 2}]", 
        "__lr_mult__": "1.0", 
        "__shape__": "(16, 256, 3, 3)", 
        "__storage_type__": "0", 
        "__wd_mult__": "1.0"
      }, 
      "inputs": []
    }, 
    {
      "op": "null", 
      "name": "ssd0_convpredictor9_conv0_bias", 
      "attrs": {
        "__dtype__": "0", 
        "__init__": "zeros", 
        "__lr_mult__": "1.0", 
        "__shape__": "(16,)", 
        "__storage_type__": "0", 
        "__wd_mult__": "1.0"
      }, 
      "inputs": []
    }, 
    {
      "op": "Convolution", 
      "name": "ssd0_convpredictor9_conv0_fwd", 
      "attrs": {
        "dilate": "(1, 1)", 
        "kernel": "(3, 3)", 
        "layout": "NCHW", 
        "no_bias": "False", 
        "num_filter": "16", 
        "num_group": "1", 
        "pad": "(1, 1)", 
        "stride": "(1, 1)"
      }, 
      "inputs": [[114, 0, 0], [188, 0, 0], [189, 0, 0]]
    }, 
    {
      "op": "transpose", 
      "name": "ssd0_transpose10", 
      "attrs": {"axes": "(0, 2, 3, 1)"}, 
      "inputs": [[190, 0, 0]]
    }, 
    {
      "op": "Flatten", 
      "name": "ssd0_flatten10", 
      "inputs": [[191, 0, 0]]
    }, 
    {
      "op": "null", 
      "name": "ssd0_convpredictor11_conv0_weight", 
      "attrs": {
        "__dtype__": "0", 
        "__init__": "[\"xavier\", {\"rnd_type\": \"uniform\", \"factor_type\": \"avg\", \"magnitude\": 2}]", 
        "__lr_mult__": "1.0", 
        "__shape__": "(16, 256, 3, 3)", 
        "__storage_type__": "0", 
        "__wd_mult__": "1.0"
      }, 
      "inputs": []
    }, 
    {
      "op": "null", 
      "name": "ssd0_convpredictor11_conv0_bias", 
      "attrs": {
        "__dtype__": "0", 
        "__init__": "zeros", 
        "__lr_mult__": "1.0", 
        "__shape__": "(16,)", 
        "__storage_type__": "0", 
        "__wd_mult__": "1.0"
      }, 
      "inputs": []
    }, 
    {
      "op": "Convolution", 
      "name": "ssd0_convpredictor11_conv0_fwd", 
      "attrs": {
        "dilate": "(1, 1)", 
        "kernel": "(3, 3)", 
        "layout": "NCHW", 
        "no_bias": "False", 
        "num_filter": "16", 
        "num_group": "1", 
        "pad": "(1, 1)", 
        "stride": "(1, 1)"
      }, 
      "inputs": [[127, 0, 0], [193, 0, 0], [194, 0, 0]]
    }, 
    {
      "op": "transpose", 
      "name": "ssd0_transpose11", 
      "attrs": {"axes": "(0, 2, 3, 1)"}, 
      "inputs": [[195, 0, 0]]
    }, 
    {
      "op": "Flatten", 
      "name": "ssd0_flatten11", 
      "inputs": [[196, 0, 0]]
    }, 
    {
      "op": "Concat", 
      "name": "ssd0_concat1", 
      "attrs": {
        "dim": "1", 
        "num_args": "6"
      }, 
      "inputs": [[172, 0, 0], [177, 0, 0], [182, 0, 0], [187, 0, 0], [192, 0, 0], [197, 0, 0]]
    }, 
    {
      "op": "Reshape", 
      "name": "ssd0_reshape7", 
      "attrs": {"shape": "(0, -1, 4)"}, 
      "inputs": [[198, 0, 0]]
    }, 
    {
      "op": "SliceChannel", 
      "name": "ssd0_normalizedboxcenterdecoder0_split1", 
      "attrs": {
        "axis": "-1", 
        "num_outputs": "4"
      }, 
      "inputs": [[199, 0, 0]]
    }, 
    {
      "op": "_mul_scalar", 
      "name": "ssd0_normalizedboxcenterdecoder0__mulscalar0", 
      "attrs": {"scalar": "0.1"}, 
      "inputs": [[200, 0, 0]]
    }, 
    {
      "op": "_plus_scalar", 
      "name": "ssd0_normalizedboxcenterdecoder0__plusscalar0", 
      "attrs": {"scalar": "0.0"}, 
      "inputs": [[201, 0, 0]]
    }, 
    {
      "op": "null", 
      "name": "ssd0_ssdanchorgenerator0_anchor_0", 
      "attrs": {
        "__dtype__": "0", 
        "__init__": "Constant_ssd0_ssdanchorgenerator0_anchor_0_139822788265576", 
        "__lr_mult__": "1.0", 
        "__shape__": "(1, 1, 128, 128, 16)", 
        "__storage_type__": "0", 
        "__wd_mult__": "1.0"
      }, 
      "inputs": []
    }, 
    {
      "op": "_mul_scalar", 
      "name": "ssd0_ssdanchorgenerator0__mulscalar0", 
      "attrs": {"scalar": "0"}, 
      "inputs": [[48, 0, 0]]
    }, 
    {
      "op": "slice_like", 
      "name": "ssd0_ssdanchorgenerator0_slice_like0", 
      "attrs": {"axes": "(2, 3)"}, 
      "inputs": [[203, 0, 0], [204, 0, 0]]
    }, 
    {
      "op": "Reshape", 
      "name": "ssd0_ssdanchorgenerator0_reshape0", 
      "attrs": {"shape": "(1, -1, 4)"}, 
      "inputs": [[205, 0, 0]]
    }, 
    {
      "op": "Reshape", 
      "name": "ssd0_ssdanchorgenerator0_reshape1", 
      "attrs": {"shape": "(1, -1, 4)"}, 
      "inputs": [[206, 0, 0]]
    }, 
    {
      "op": "Reshape", 
      "name": "ssd0_reshape0", 
      "attrs": {"shape": "(1, -1)"}, 
      "inputs": [[207, 0, 0]]
    }, 
    {
      "op": "null", 
      "name": "ssd0_ssdanchorgenerator1_anchor_1", 
      "attrs": {
        "__dtype__": "0", 
        "__init__": "Constant_ssd0_ssdanchorgenerator1_anchor_1_139822786647264", 
        "__lr_mult__": "1.0", 
        "__shape__": "(1, 1, 64, 64, 24)", 
        "__storage_type__": "0", 
        "__wd_mult__": "1.0"
      }, 
      "inputs": []
    }, 
    {
      "op": "_mul_scalar", 
      "name": "ssd0_ssdanchorgenerator1__mulscalar0", 
      "attrs": {"scalar": "0"}, 
      "inputs": [[75, 0, 0]]
    }, 
    {
      "op": "slice_like", 
      "name": "ssd0_ssdanchorgenerator1_slice_like0", 
      "attrs": {"axes": "(2, 3)"}, 
      "inputs": [[209, 0, 0], [210, 0, 0]]
    }, 
    {
      "op": "Reshape", 
      "name": "ssd0_ssdanchorgenerator1_reshape0", 
      "attrs": {"shape": "(1, -1, 4)"}, 
      "inputs": [[211, 0, 0]]
    }, 
    {
      "op": "Reshape", 
      "name": "ssd0_ssdanchorgenerator1_reshape1", 
      "attrs": {"shape": "(1, -1, 4)"}, 
      "inputs": [[212, 0, 0]]
    }, 
    {
      "op": "Reshape", 
      "name": "ssd0_reshape1", 
      "attrs": {"shape": "(1, -1)"}, 
      "inputs": [[213, 0, 0]]
    }, 
    {
      "op": "null", 
      "name": "ssd0_ssdanchorgenerator2_anchor_2", 
      "attrs": {
        "__dtype__": "0", 
        "__init__": "Constant_ssd0_ssdanchorgenerator2_anchor_2_139822786647096", 
        "__lr_mult__": "1.0", 
        "__shape__": "(1, 1, 32, 32, 24)", 
        "__storage_type__": "0", 
        "__wd_mult__": "1.0"
      }, 
      "inputs": []
    }, 
    {
      "op": "_mul_scalar", 
      "name": "ssd0_ssdanchorgenerator2__mulscalar0", 
      "attrs": {"scalar": "0"}, 
      "inputs": [[88, 0, 0]]
    }, 
    {
      "op": "slice_like", 
      "name": "ssd0_ssdanchorgenerator2_slice_like0", 
      "attrs": {"axes": "(2, 3)"}, 
      "inputs": [[215, 0, 0], [216, 0, 0]]
    }, 
    {
      "op": "Reshape", 
      "name": "ssd0_ssdanchorgenerator2_reshape0", 
      "attrs": {"shape": "(1, -1, 4)"}, 
      "inputs": [[217, 0, 0]]
    }, 
    {
      "op": "Reshape", 
      "name": "ssd0_ssdanchorgenerator2_reshape1", 
      "attrs": {"shape": "(1, -1, 4)"}, 
      "inputs": [[218, 0, 0]]
    }, 
    {
      "op": "Reshape", 
      "name": "ssd0_reshape2", 
      "attrs": {"shape": "(1, -1)"}, 
      "inputs": [[219, 0, 0]]
    }, 
    {
      "op": "null", 
      "name": "ssd0_ssdanchorgenerator3_anchor_3", 
      "attrs": {
        "__dtype__": "0", 
        "__init__": "Constant_ssd0_ssdanchorgenerator3_anchor_3_139822786751736", 
        "__lr_mult__": "1.0", 
        "__shape__": "(1, 1, 16, 16, 24)", 
        "__storage_type__": "0", 
        "__wd_mult__": "1.0"
      }, 
      "inputs": []
    }, 
    {
      "op": "_mul_scalar", 
      "name": "ssd0_ssdanchorgenerator3__mulscalar0", 
      "attrs": {"scalar": "0"}, 
      "inputs": [[101, 0, 0]]
    }, 
    {
      "op": "slice_like", 
      "name": "ssd0_ssdanchorgenerator3_slice_like0", 
      "attrs": {"axes": "(2, 3)"}, 
      "inputs": [[221, 0, 0], [222, 0, 0]]
    }, 
    {
      "op": "Reshape", 
      "name": "ssd0_ssdanchorgenerator3_reshape0", 
      "attrs": {"shape": "(1, -1, 4)"}, 
      "inputs": [[223, 0, 0]]
    }, 
    {
      "op": "Reshape", 
      "name": "ssd0_ssdanchorgenerator3_reshape1", 
      "attrs": {"shape": "(1, -1, 4)"}, 
      "inputs": [[224, 0, 0]]
    }, 
    {
      "op": "Reshape", 
      "name": "ssd0_reshape3", 
      "attrs": {"shape": "(1, -1)"}, 
      "inputs": [[225, 0, 0]]
    }, 
    {
      "op": "null", 
      "name": "ssd0_ssdanchorgenerator4_anchor_4", 
      "attrs": {
        "__dtype__": "0", 
        "__init__": "Constant_ssd0_ssdanchorgenerator4_anchor_4_139822786751232", 
        "__lr_mult__": "1.0", 
        "__shape__": "(1, 1, 16, 16, 16)", 
        "__storage_type__": "0", 
        "__wd_mult__": "1.0"
      }, 
      "inputs": []
    }, 
    {
      "op": "_mul_scalar", 
      "name": "ssd0_ssdanchorgenerator4__mulscalar0", 
      "attrs": {"scalar": "0"}, 
      "inputs": [[114, 0, 0]]
    }, 
    {
      "op": "slice_like", 
      "name": "ssd0_ssdanchorgenerator4_slice_like0", 
      "attrs": {"axes": "(2, 3)"}, 
      "inputs": [[227, 0, 0], [228, 0, 0]]
    }, 
    {
      "op": "Reshape", 
      "name": "ssd0_ssdanchorgenerator4_reshape0", 
      "attrs": {"shape": "(1, -1, 4)"}, 
      "inputs": [[229, 0, 0]]
    }, 
    {
      "op": "Reshape", 
      "name": "ssd0_ssdanchorgenerator4_reshape1", 
      "attrs": {"shape": "(1, -1, 4)"}, 
      "inputs": [[230, 0, 0]]
    }, 
    {
      "op": "Reshape", 
      "name": "ssd0_reshape4", 
      "attrs": {"shape": "(1, -1)"}, 
      "inputs": [[231, 0, 0]]
    }, 
    {
      "op": "null", 
      "name": "ssd0_ssdanchorgenerator5_anchor_5", 
      "attrs": {
        "__dtype__": "0", 
        "__init__": "Constant_ssd0_ssdanchorgenerator5_anchor_5_139822787226984", 
        "__lr_mult__": "1.0", 
        "__shape__": "(1, 1, 16, 16, 16)", 
        "__storage_type__": "0", 
        "__wd_mult__": "1.0"
      }, 
      "inputs": []
    }, 
    {
      "op": "_mul_scalar", 
      "name": "ssd0_ssdanchorgenerator5__mulscalar0", 
      "attrs": {"scalar": "0"}, 
      "inputs": [[127, 0, 0]]
    }, 
    {
      "op": "slice_like", 
      "name": "ssd0_ssdanchorgenerator5_slice_like0", 
      "attrs": {"axes": "(2, 3)"}, 
      "inputs": [[233, 0, 0], [234, 0, 0]]
    }, 
    {
      "op": "Reshape", 
      "name": "ssd0_ssdanchorgenerator5_reshape0", 
      "attrs": {"shape": "(1, -1, 4)"}, 
      "inputs": [[235, 0, 0]]
    }, 
    {
      "op": "Reshape", 
      "name": "ssd0_ssdanchorgenerator5_reshape1", 
      "attrs": {"shape": "(1, -1, 4)"}, 
      "inputs": [[236, 0, 0]]
    }, 
    {
      "op": "Reshape", 
      "name": "ssd0_reshape5", 
      "attrs": {"shape": "(1, -1)"}, 
      "inputs": [[237, 0, 0]]
    }, 
    {
      "op": "Concat", 
      "name": "ssd0_concat2", 
      "attrs": {
        "dim": "1", 
        "num_args": "6"
      }, 
      "inputs": [[208, 0, 0], [214, 0, 0], [220, 0, 0], [226, 0, 0], [232, 0, 0], [238, 0, 0]]
    }, 
    {
      "op": "Reshape", 
      "name": "ssd0_reshape8", 
      "attrs": {"shape": "(1, -1, 4)"}, 
      "inputs": [[239, 0, 0]]
    }, 
    {
      "op": "SliceChannel", 
      "name": "ssd0_normalizedboxcenterdecoder0_split0", 
      "attrs": {
        "axis": "-1", 
        "num_outputs": "4"
      }, 
      "inputs": [[240, 0, 0]]
    }, 
    {
      "op": "broadcast_mul", 
      "name": "ssd0_normalizedboxcenterdecoder0_broadcast_mul0", 
      "inputs": [[202, 0, 0], [241, 2, 0]]
    }, 
    {
      "op": "broadcast_add", 
      "name": "ssd0_normalizedboxcenterdecoder0_broadcast_add0", 
      "inputs": [[242, 0, 0], [241, 0, 0]]
    }, 
    {
      "op": "_mul_scalar", 
      "name": "ssd0_normalizedboxcenterdecoder0__mulscalar2", 
      "attrs": {"scalar": "0.2"}, 
      "inputs": [[200, 2, 0]]
    }, 
    {
      "op": "_plus_scalar", 
      "name": "ssd0_normalizedboxcenterdecoder0__plusscalar2", 
      "attrs": {"scalar": "0.0"}, 
      "inputs": [[244, 0, 0]]
    }, 
    {
      "op": "exp", 
      "name": "ssd0_normalizedboxcenterdecoder0_exp0", 
      "inputs": [[245, 0, 0]]
    }, 
    {
      "op": "broadcast_mul", 
      "name": "ssd0_normalizedboxcenterdecoder0_broadcast_mul2", 
      "inputs": [[246, 0, 0], [241, 2, 0]]
    }, 
    {
      "op": "_div_scalar", 
      "name": "ssd0_normalizedboxcenterdecoder0__divscalar0", 
      "attrs": {"scalar": "2"}, 
      "inputs": [[247, 0, 0]]
    }, 
    {
      "op": "elemwise_sub", 
      "name": "ssd0_normalizedboxcenterdecoder0__minus0", 
      "inputs": [[243, 0, 0], [248, 0, 0]]
    }, 
    {
      "op": "_mul_scalar", 
      "name": "ssd0_normalizedboxcenterdecoder0__mulscalar1", 
      "attrs": {"scalar": "0.1"}, 
      "inputs": [[200, 1, 0]]
    }, 
    {
      "op": "_plus_scalar", 
      "name": "ssd0_normalizedboxcenterdecoder0__plusscalar1", 
      "attrs": {"scalar": "0.0"}, 
      "inputs": [[250, 0, 0]]
    }, 
    {
      "op": "broadcast_mul", 
      "name": "ssd0_normalizedboxcenterdecoder0_broadcast_mul1", 
      "inputs": [[251, 0, 0], [241, 3, 0]]
    }, 
    {
      "op": "broadcast_add", 
      "name": "ssd0_normalizedboxcenterdecoder0_broadcast_add1", 
      "inputs": [[252, 0, 0], [241, 1, 0]]
    }, 
    {
      "op": "_mul_scalar", 
      "name": "ssd0_normalizedboxcenterdecoder0__mulscalar3", 
      "attrs": {"scalar": "0.2"}, 
      "inputs": [[200, 3, 0]]
    }, 
    {
      "op": "_plus_scalar", 
      "name": "ssd0_normalizedboxcenterdecoder0__plusscalar3", 
      "attrs": {"scalar": "0.0"}, 
      "inputs": [[254, 0, 0]]
    }, 
    {
      "op": "exp", 
      "name": "ssd0_normalizedboxcenterdecoder0_exp1", 
      "inputs": [[255, 0, 0]]
    }, 
    {
      "op": "broadcast_mul", 
      "name": "ssd0_normalizedboxcenterdecoder0_broadcast_mul3", 
      "inputs": [[256, 0, 0], [241, 3, 0]]
    }, 
    {
      "op": "_div_scalar", 
      "name": "ssd0_normalizedboxcenterdecoder0__divscalar1", 
      "attrs": {"scalar": "2"}, 
      "inputs": [[257, 0, 0]]
    }, 
    {
      "op": "elemwise_sub", 
      "name": "ssd0_normalizedboxcenterdecoder0__minus1", 
      "inputs": [[253, 0, 0], [258, 0, 0]]
    }, 
    {
      "op": "elemwise_add", 
      "name": "ssd0_normalizedboxcenterdecoder0__plus0", 
      "inputs": [[243, 0, 0], [248, 0, 0]]
    }, 
    {
      "op": "elemwise_add", 
      "name": "ssd0_normalizedboxcenterdecoder0__plus1", 
      "inputs": [[253, 0, 0], [258, 0, 0]]
    }, 
    {
      "op": "Concat", 
      "name": "ssd0_normalizedboxcenterdecoder0_concat0", 
      "attrs": {
        "dim": "-1", 
        "num_args": "4"
      }, 
      "inputs": [[249, 0, 0], [259, 0, 0], [260, 0, 0], [261, 0, 0]]
    }, 
    {
      "op": "Concat", 
      "name": "ssd0_concat3", 
      "attrs": {
        "dim": "-1", 
        "num_args": "3"
      }, 
      "inputs": [[164, 0, 0], [167, 0, 0], [262, 0, 0]]
    }, 
    {
      "op": "slice_axis", 
      "name": "ssd0_slice_axis2", 
      "attrs": {
        "axis": "-1", 
        "begin": "1", 
        "end": "2"
      }, 
      "inputs": [[163, 0, 0]]
    }, 
    {
      "op": "slice_axis", 
      "name": "ssd0_slice_axis3", 
      "attrs": {
        "axis": "-1", 
        "begin": "1", 
        "end": "2"
      }, 
      "inputs": [[166, 0, 0]]
    }, 
    {
      "op": "Concat", 
      "name": "ssd0_concat4", 
      "attrs": {
        "dim": "-1", 
        "num_args": "3"
      }, 
      "inputs": [[264, 0, 0], [265, 0, 0], [262, 0, 0]]
    }, 
    {
      "op": "slice_axis", 
      "name": "ssd0_slice_axis4", 
      "attrs": {
        "axis": "-1", 
        "begin": "2", 
        "end": "3"
      }, 
      "inputs": [[163, 0, 0]]
    }, 
    {
      "op": "slice_axis", 
      "name": "ssd0_slice_axis5", 
      "attrs": {
        "axis": "-1", 
        "begin": "2", 
        "end": "3"
      }, 
      "inputs": [[166, 0, 0]]
    }, 
    {
      "op": "Concat", 
      "name": "ssd0_concat5", 
      "attrs": {
        "dim": "-1", 
        "num_args": "3"
      }, 
      "inputs": [[267, 0, 0], [268, 0, 0], [262, 0, 0]]
    }, 
    {
      "op": "slice_axis", 
      "name": "ssd0_slice_axis6", 
      "attrs": {
        "axis": "-1", 
        "begin": "3", 
        "end": "4"
      }, 
      "inputs": [[163, 0, 0]]
    }, 
    {
      "op": "slice_axis", 
      "name": "ssd0_slice_axis7", 
      "attrs": {
        "axis": "-1", 
        "begin": "3", 
        "end": "4"
      }, 
      "inputs": [[166, 0, 0]]
    }, 
    {
      "op": "Concat", 
      "name": "ssd0_concat6", 
      "attrs": {
        "dim": "-1", 
        "num_args": "3"
      }, 
      "inputs": [[270, 0, 0], [271, 0, 0], [262, 0, 0]]
    }, 
    {
      "op": "slice_axis", 
      "name": "ssd0_slice_axis8", 
      "attrs": {
        "axis": "-1", 
        "begin": "4", 
        "end": "5"
      }, 
      "inputs": [[163, 0, 0]]
    }, 
    {
      "op": "slice_axis", 
      "name": "ssd0_slice_axis9", 
      "attrs": {
        "axis": "-1", 
        "begin": "4", 
        "end": "5"
      }, 
      "inputs": [[166, 0, 0]]
    }, 
    {
      "op": "Concat", 
      "name": "ssd0_concat7", 
      "attrs": {
        "dim": "-1", 
        "num_args": "3"
      }, 
      "inputs": [[273, 0, 0], [274, 0, 0], [262, 0, 0]]
    }, 
    {
      "op": "slice_axis", 
      "name": "ssd0_slice_axis10", 
      "attrs": {
        "axis": "-1", 
        "begin": "5", 
        "end": "6"
      }, 
      "inputs": [[163, 0, 0]]
    }, 
    {
      "op": "slice_axis", 
      "name": "ssd0_slice_axis11", 
      "attrs": {
        "axis": "-1", 
        "begin": "5", 
        "end": "6"
      }, 
      "inputs": [[166, 0, 0]]
    }, 
    {
      "op": "Concat", 
      "name": "ssd0_concat8", 
      "attrs": {
        "dim": "-1", 
        "num_args": "3"
      }, 
      "inputs": [[276, 0, 0], [277, 0, 0], [262, 0, 0]]
    }, 
    {
      "op": "slice_axis", 
      "name": "ssd0_slice_axis12", 
      "attrs": {
        "axis": "-1", 
        "begin": "6", 
        "end": "7"
      }, 
      "inputs": [[163, 0, 0]]
    }, 
    {
      "op": "slice_axis", 
      "name": "ssd0_slice_axis13", 
      "attrs": {
        "axis": "-1", 
        "begin": "6", 
        "end": "7"
      }, 
      "inputs": [[166, 0, 0]]
    }, 
    {
      "op": "Concat", 
      "name": "ssd0_concat9", 
      "attrs": {
        "dim": "-1", 
        "num_args": "3"
      }, 
      "inputs": [[279, 0, 0], [280, 0, 0], [262, 0, 0]]
    }, 
    {
      "op": "slice_axis", 
      "name": "ssd0_slice_axis14", 
      "attrs": {
        "axis": "-1", 
        "begin": "7", 
        "end": "8"
      }, 
      "inputs": [[163, 0, 0]]
    }, 
    {
      "op": "slice_axis", 
      "name": "ssd0_slice_axis15", 
      "attrs": {
        "axis": "-1", 
        "begin": "7", 
        "end": "8"
      }, 
      "inputs": [[166, 0, 0]]
    }, 
    {
      "op": "Concat", 
      "name": "ssd0_concat10", 
      "attrs": {
        "dim": "-1", 
        "num_args": "3"
      }, 
      "inputs": [[282, 0, 0], [283, 0, 0], [262, 0, 0]]
    }, 
    {
      "op": "slice_axis", 
      "name": "ssd0_slice_axis16", 
      "attrs": {
        "axis": "-1", 
        "begin": "8", 
        "end": "9"
      }, 
      "inputs": [[163, 0, 0]]
    }, 
    {
      "op": "slice_axis", 
      "name": "ssd0_slice_axis17", 
      "attrs": {
        "axis": "-1", 
        "begin": "8", 
        "end": "9"
      }, 
      "inputs": [[166, 0, 0]]
    }, 
    {
      "op": "Concat", 
      "name": "ssd0_concat11", 
      "attrs": {
        "dim": "-1", 
        "num_args": "3"
      }, 
      "inputs": [[285, 0, 0], [286, 0, 0], [262, 0, 0]]
    }, 
    {
      "op": "slice_axis", 
      "name": "ssd0_slice_axis18", 
      "attrs": {
        "axis": "-1", 
        "begin": "9", 
        "end": "10"
      }, 
      "inputs": [[163, 0, 0]]
    }, 
    {
      "op": "slice_axis", 
      "name": "ssd0_slice_axis19", 
      "attrs": {
        "axis": "-1", 
        "begin": "9", 
        "end": "10"
      }, 
      "inputs": [[166, 0, 0]]
    }, 
    {
      "op": "Concat", 
      "name": "ssd0_concat12", 
      "attrs": {
        "dim": "-1", 
        "num_args": "3"
      }, 
      "inputs": [[288, 0, 0], [289, 0, 0], [262, 0, 0]]
    }, 
    {
      "op": "slice_axis", 
      "name": "ssd0_slice_axis20", 
      "attrs": {
        "axis": "-1", 
        "begin": "10", 
        "end": "11"
      }, 
      "inputs": [[163, 0, 0]]
    }, 
    {
      "op": "slice_axis", 
      "name": "ssd0_slice_axis21", 
      "attrs": {
        "axis": "-1", 
        "begin": "10", 
        "end": "11"
      }, 
      "inputs": [[166, 0, 0]]
    }, 
    {
      "op": "Concat", 
      "name": "ssd0_concat13", 
      "attrs": {
        "dim": "-1", 
        "num_args": "3"
      }, 
      "inputs": [[291, 0, 0], [292, 0, 0], [262, 0, 0]]
    }, 
    {
      "op": "slice_axis", 
      "name": "ssd0_slice_axis22", 
      "attrs": {
        "axis": "-1", 
        "begin": "11", 
        "end": "12"
      }, 
      "inputs": [[163, 0, 0]]
    }, 
    {
      "op": "slice_axis", 
      "name": "ssd0_slice_axis23", 
      "attrs": {
        "axis": "-1", 
        "begin": "11", 
        "end": "12"
      }, 
      "inputs": [[166, 0, 0]]
    }, 
    {
      "op": "Concat", 
      "name": "ssd0_concat14", 
      "attrs": {
        "dim": "-1", 
        "num_args": "3"
      }, 
      "inputs": [[294, 0, 0], [295, 0, 0], [262, 0, 0]]
    }, 
    {
      "op": "slice_axis", 
      "name": "ssd0_slice_axis24", 
      "attrs": {
        "axis": "-1", 
        "begin": "12", 
        "end": "13"
      }, 
      "inputs": [[163, 0, 0]]
    }, 
    {
      "op": "slice_axis", 
      "name": "ssd0_slice_axis25", 
      "attrs": {
        "axis": "-1", 
        "begin": "12", 
        "end": "13"
      }, 
      "inputs": [[166, 0, 0]]
    }, 
    {
      "op": "Concat", 
      "name": "ssd0_concat15", 
      "attrs": {
        "dim": "-1", 
        "num_args": "3"
      }, 
      "inputs": [[297, 0, 0], [298, 0, 0], [262, 0, 0]]
    }, 
    {
      "op": "slice_axis", 
      "name": "ssd0_slice_axis26", 
      "attrs": {
        "axis": "-1", 
        "begin": "13", 
        "end": "14"
      }, 
      "inputs": [[163, 0, 0]]
    }, 
    {
      "op": "slice_axis", 
      "name": "ssd0_slice_axis27", 
      "attrs": {
        "axis": "-1", 
        "begin": "13", 
        "end": "14"
      }, 
      "inputs": [[166, 0, 0]]
    }, 
    {
      "op": "Concat", 
      "name": "ssd0_concat16", 
      "attrs": {
        "dim": "-1", 
        "num_args": "3"
      }, 
      "inputs": [[300, 0, 0], [301, 0, 0], [262, 0, 0]]
    }, 
    {
      "op": "slice_axis", 
      "name": "ssd0_slice_axis28", 
      "attrs": {
        "axis": "-1", 
        "begin": "14", 
        "end": "15"
      }, 
      "inputs": [[163, 0, 0]]
    }, 
    {
      "op": "slice_axis", 
      "name": "ssd0_slice_axis29", 
      "attrs": {
        "axis": "-1", 
        "begin": "14", 
        "end": "15"
      }, 
      "inputs": [[166, 0, 0]]
    }, 
    {
      "op": "Concat", 
      "name": "ssd0_concat17", 
      "attrs": {
        "dim": "-1", 
        "num_args": "3"
      }, 
      "inputs": [[303, 0, 0], [304, 0, 0], [262, 0, 0]]
    }, 
    {
      "op": "slice_axis", 
      "name": "ssd0_slice_axis30", 
      "attrs": {
        "axis": "-1", 
        "begin": "15", 
        "end": "16"
      }, 
      "inputs": [[163, 0, 0]]
    }, 
    {
      "op": "slice_axis", 
      "name": "ssd0_slice_axis31", 
      "attrs": {
        "axis": "-1", 
        "begin": "15", 
        "end": "16"
      }, 
      "inputs": [[166, 0, 0]]
    }, 
    {
      "op": "Concat", 
      "name": "ssd0_concat18", 
      "attrs": {
        "dim": "-1", 
        "num_args": "3"
      }, 
      "inputs": [[306, 0, 0], [307, 0, 0], [262, 0, 0]]
    }, 
    {
      "op": "slice_axis", 
      "name": "ssd0_slice_axis32", 
      "attrs": {
        "axis": "-1", 
        "begin": "16", 
        "end": "17"
      }, 
      "inputs": [[163, 0, 0]]
    }, 
    {
      "op": "slice_axis", 
      "name": "ssd0_slice_axis33", 
      "attrs": {
        "axis": "-1", 
        "begin": "16", 
        "end": "17"
      }, 
      "inputs": [[166, 0, 0]]
    }, 
    {
      "op": "Concat", 
      "name": "ssd0_concat19", 
      "attrs": {
        "dim": "-1", 
        "num_args": "3"
      }, 
      "inputs": [[309, 0, 0], [310, 0, 0], [262, 0, 0]]
    }, 
    {
      "op": "slice_axis", 
      "name": "ssd0_slice_axis34", 
      "attrs": {
        "axis": "-1", 
        "begin": "17", 
        "end": "18"
      }, 
      "inputs": [[163, 0, 0]]
    }, 
    {
      "op": "slice_axis", 
      "name": "ssd0_slice_axis35", 
      "attrs": {
        "axis": "-1", 
        "begin": "17", 
        "end": "18"
      }, 
      "inputs": [[166, 0, 0]]
    }, 
    {
      "op": "Concat", 
      "name": "ssd0_concat20", 
      "attrs": {
        "dim": "-1", 
        "num_args": "3"
      }, 
      "inputs": [[312, 0, 0], [313, 0, 0], [262, 0, 0]]
    }, 
    {
      "op": "slice_axis", 
      "name": "ssd0_slice_axis36", 
      "attrs": {
        "axis": "-1", 
        "begin": "18", 
        "end": "19"
      }, 
      "inputs": [[163, 0, 0]]
    }, 
    {
      "op": "slice_axis", 
      "name": "ssd0_slice_axis37", 
      "attrs": {
        "axis": "-1", 
        "begin": "18", 
        "end": "19"
      }, 
      "inputs": [[166, 0, 0]]
    }, 
    {
      "op": "Concat", 
      "name": "ssd0_concat21", 
      "attrs": {
        "dim": "-1", 
        "num_args": "3"
      }, 
      "inputs": [[315, 0, 0], [316, 0, 0], [262, 0, 0]]
    }, 
    {
      "op": "slice_axis", 
      "name": "ssd0_slice_axis38", 
      "attrs": {
        "axis": "-1", 
        "begin": "19", 
        "end": "20"
      }, 
      "inputs": [[163, 0, 0]]
    }, 
    {
      "op": "slice_axis", 
      "name": "ssd0_slice_axis39", 
      "attrs": {
        "axis": "-1", 
        "begin": "19", 
        "end": "20"
      }, 
      "inputs": [[166, 0, 0]]
    }, 
    {
      "op": "Concat", 
      "name": "ssd0_concat22", 
      "attrs": {
        "dim": "-1", 
        "num_args": "3"
      }, 
      "inputs": [[318, 0, 0], [319, 0, 0], [262, 0, 0]]
    }, 
    {
      "op": "Concat", 
      "name": "ssd0_concat23", 
      "attrs": {
        "dim": "1", 
        "num_args": "20"
      }, 
      "inputs": [
        [263, 0, 0], 
        [266, 0, 0], 
        [269, 0, 0], 
        [272, 0, 0], 
        [275, 0, 0], 
        [278, 0, 0], 
        [281, 0, 0], 
        [284, 0, 0], 
        [287, 0, 0], 
        [290, 0, 0], 
        [293, 0, 0], 
        [296, 0, 0], 
        [299, 0, 0], 
        [302, 0, 0], 
        [305, 0, 0], 
        [308, 0, 0], 
        [311, 0, 0], 
        [314, 0, 0], 
        [317, 0, 0], 
        [320, 0, 0]
      ]
    }, 
    {
      "op": "_contrib_box_nms", 
      "name": "ssd0_box_nms0", 
      "attrs": {
        "coord_start": "2", 
        "force_suppress": "False", 
        "id_index": "0", 
        "overlap_thresh": "0.45", 
        "score_index": "1", 
        "topk": "400", 
        "valid_thresh": "0.01"
      }, 
      "inputs": [[321, 0, 0]]
    }, 
    {
      "op": "slice_axis", 
      "name": "ssd0_slice_axis40", 
      "attrs": {
        "axis": "1", 
        "begin": "0", 
        "end": "100"
      }, 
      "inputs": [[322, 0, 0]]
    }, 
    {
      "op": "slice_axis", 
      "name": "ssd0_slice_axis41", 
      "attrs": {
        "axis": "2", 
        "begin": "0", 
        "end": "1"
      }, 
      "inputs": [[323, 0, 0]]
    }, 
    {
      "op": "slice_axis", 
      "name": "ssd0_slice_axis42", 
      "attrs": {
        "axis": "2", 
        "begin": "1", 
        "end": "2"
      }, 
      "inputs": [[323, 0, 0]]
    }, 
    {
      "op": "slice_axis", 
      "name": "ssd0_slice_axis43", 
      "attrs": {
        "axis": "2", 
        "begin": "2", 
        "end": "6"
      }, 
      "inputs": [[323, 0, 0]]
    }
  ], 
  "arg_nodes": [
    0, 
    1, 
    3, 
    4, 
    7, 
    8, 
    12, 
    13, 
    16, 
    17, 
    21, 
    22, 
    25, 
    26, 
    29, 
    30, 
    34, 
    35, 
    38, 
    39, 
    42, 
    43, 
    47, 
    49, 
    50, 
    55, 
    56, 
    59, 
    60, 
    63, 
    64, 
    68, 
    69, 
    72, 
    73, 
    76, 
    77, 
    81, 
    82, 
    85, 
    86, 
    89, 
    90, 
    94, 
    95, 
    98, 
    99, 
    102, 
    103, 
    107, 
    108, 
    111, 
    112, 
    115, 
    116, 
    120, 
    121, 
    124, 
    125, 
    128, 
    129, 
    168, 
    169, 
    173, 
    174, 
    178, 
    179, 
    183, 
    184, 
    188, 
    189, 
    193, 
    194, 
    203, 
    209, 
    215, 
    221, 
    227, 
    233
  ], 
  "node_row_ptr": [
    0, 
    1, 
    2, 
    3, 
    4, 
    5, 
    6, 
    7, 
    8, 
    9, 
    10, 
    11, 
    12, 
    13, 
    14, 
    15, 
    16, 
    17, 
    18, 
    19, 
    20, 
    21, 
    22, 
    23, 
    24, 
    25, 
    26, 
    27, 
    28, 
    29, 
    30, 
    31, 
    32, 
    33, 
    34, 
    35, 
    36, 
    37, 
    38, 
    39, 
    40, 
    41, 
    42, 
    43, 
    44, 
    45, 
    46, 
    48, 
    49, 
    50, 
    51, 
    52, 
    53, 
    54, 
    55, 
    56, 
    57, 
    58, 
    59, 
    60, 
    61, 
    62, 
    63, 
    64, 
    65, 
    66, 
    67, 
    68, 
    69, 
    70, 
    71, 
    72, 
    73, 
    74, 
    75, 
    76, 
    77, 
    78, 
    79, 
    80, 
    81, 
    82, 
    83, 
    84, 
    85, 
    86, 
    87, 
    88, 
    89, 
    90, 
    91, 
    92, 
    93, 
    94, 
    95, 
    96, 
    97, 
    98, 
    99, 
    100, 
    101, 
    102, 
    103, 
    104, 
    105, 
    106, 
    107, 
    108, 
    109, 
    110, 
    111, 
    112, 
    113, 
    114, 
    115, 
    116, 
    117, 
    118, 
    119, 
    120, 
    121, 
    122, 
    123, 
    124, 
    125, 
    126, 
    127, 
    128, 
    129, 
    130, 
    131, 
    132, 
    133, 
    134, 
    135, 
    136, 
    137, 
    138, 
    139, 
    140, 
    141, 
    142, 
    143, 
    144, 
    145, 
    146, 
    147, 
    148, 
    149, 
    150, 
    151, 
    152, 
    153, 
    154, 
    155, 
    156, 
    157, 
    158, 
    159, 
    160, 
    161, 
    162, 
    163, 
    164, 
    165, 
    166, 
    167, 
    168, 
    169, 
    170, 
    171, 
    172, 
    173, 
    174, 
    175, 
    176, 
    177, 
    178, 
    179, 
    180, 
    181, 
    182, 
    183, 
    184, 
    185, 
    186, 
    187, 
    188, 
    189, 
    190, 
    191, 
    192, 
    193, 
    194, 
    195, 
    196, 
    197, 
    198, 
    199, 
    200, 
    201, 
    205, 
    206, 
    207, 
    208, 
    209, 
    210, 
    211, 
    212, 
    213, 
    214, 
    215, 
    216, 
    217, 
    218, 
    219, 
    220, 
    221, 
    222, 
    223, 
    224, 
    225, 
    226, 
    227, 
    228, 
    229, 
    230, 
    231, 
    232, 
    233, 
    234, 
    235, 
    236, 
    237, 
    238, 
    239, 
    240, 
    241, 
    242, 
    243, 
    244, 
    245, 
    249, 
    250, 
    251, 
    252, 
    253, 
    254, 
    255, 
    256, 
    257, 
    258, 
    259, 
    260, 
    261, 
    262, 
    263, 
    264, 
    265, 
    266, 
    267, 
    268, 
    269, 
    270, 
    271, 
    272, 
    273, 
    274, 
    275, 
    276, 
    277, 
    278, 
    279, 
    280, 
    281, 
    282, 
    283, 
    284, 
    285, 
    286, 
    287, 
    288, 
    289, 
    290, 
    291, 
    292, 
    293, 
    294, 
    295, 
    296, 
    297, 
    298, 
    299, 
    300, 
    301, 
    302, 
    303, 
    304, 
    305, 
    306, 
    307, 
    308, 
    309, 
    310, 
    311, 
    312, 
    313, 
    314, 
    315, 
    316, 
    317, 
    318, 
    319, 
    320, 
    321, 
    322, 
    323, 
    324, 
    325, 
    326, 
    327, 
    328, 
    329, 
    331, 
    332, 
    333, 
    334, 
    335
  ], 
  "heads": [[324, 0, 0], [325, 0, 0], [326, 0, 0]], 
  "attrs": {"mxnet_version": ["int", 10401]}
}